<?xml version="1.0"?>
<net name="main_graph" version="11">
	<layers>
		<layer id="0" name="image" type="Parameter" version="opset1">
			<data shape="1,3,800,992" element_type="f32" />
			<output>
				<port id="0" precision="FP32" names="image">
					<dim>1</dim>
					<dim>3</dim>
					<dim>800</dim>
					<dim>992</dim>
				</port>
			</output>
		</layer>
		<layer id="1" name="/Constant_29" type="Const" version="opset1">
			<data element_type="f32" shape="1, 1, 4" offset="0" size="16" />
			<output>
				<port id="0" precision="FP32" names="/Constant_29_output_0">
					<dim>1</dim>
					<dim>1</dim>
					<dim>4</dim>
				</port>
			</output>
		</layer>
		<layer id="2" name="/Constant_11" type="Const" version="opset1">
			<data element_type="i64" shape="" offset="16" size="8" />
			<output>
				<port id="0" precision="I64" names="/Constant_11_output_0" />
			</output>
		</layer>
		<layer id="3" name="image/fq_output_0/input_low" type="Const" version="opset1">
			<data element_type="f32" shape="" offset="24" size="4" />
			<output>
				<port id="0" precision="FP32" />
			</output>
		</layer>
		<layer id="4" name="image/fq_output_0/input_high" type="Const" version="opset1">
			<data element_type="f32" shape="" offset="28" size="4" />
			<output>
				<port id="0" precision="FP32" />
			</output>
		</layer>
		<layer id="5" name="image/fq_output_0/output_low" type="Const" version="opset1">
			<data element_type="f32" shape="" offset="24" size="4" />
			<output>
				<port id="0" precision="FP32" />
			</output>
		</layer>
		<layer id="6" name="image/fq_output_0/output_high" type="Const" version="opset1">
			<data element_type="f32" shape="" offset="28" size="4" />
			<output>
				<port id="0" precision="FP32" />
			</output>
		</layer>
		<layer id="7" name="image/fq_output_0" type="FakeQuantize" version="opset1">
			<data levels="256" auto_broadcast="numpy" />
			<input>
				<port id="0" precision="FP32">
					<dim>1</dim>
					<dim>3</dim>
					<dim>800</dim>
					<dim>992</dim>
				</port>
				<port id="1" precision="FP32" />
				<port id="2" precision="FP32" />
				<port id="3" precision="FP32" />
				<port id="4" precision="FP32" />
			</input>
			<output>
				<port id="5" precision="FP32">
					<dim>1</dim>
					<dim>3</dim>
					<dim>800</dim>
					<dim>992</dim>
				</port>
			</output>
		</layer>
		<layer id="8" name="Constant_583387" type="Const" version="opset1">
			<data element_type="i8" shape="32, 3, 3, 3" offset="32" size="864" />
			<output>
				<port id="0" precision="I8">
					<dim>32</dim>
					<dim>3</dim>
					<dim>3</dim>
					<dim>3</dim>
				</port>
			</output>
		</layer>
		<layer id="9" name="Convert_583388" type="Convert" version="opset1">
			<data destination_type="f32" />
			<input>
				<port id="0" precision="I8">
					<dim>32</dim>
					<dim>3</dim>
					<dim>3</dim>
					<dim>3</dim>
				</port>
			</input>
			<output>
				<port id="1" precision="FP32">
					<dim>32</dim>
					<dim>3</dim>
					<dim>3</dim>
					<dim>3</dim>
				</port>
			</output>
		</layer>
		<layer id="10" name="Constant_583389" type="Const" version="opset1">
			<data element_type="f32" shape="32, 1, 1, 1" offset="896" size="128" />
			<output>
				<port id="0" precision="FP32">
					<dim>32</dim>
					<dim>1</dim>
					<dim>1</dim>
					<dim>1</dim>
				</port>
			</output>
		</layer>
		<layer id="11" name="/backbone/init_block/conv/Conv/WithoutBiases/fq_weights_1" type="Multiply" version="opset1">
			<data auto_broadcast="numpy" />
			<input>
				<port id="0" precision="FP32">
					<dim>32</dim>
					<dim>3</dim>
					<dim>3</dim>
					<dim>3</dim>
				</port>
				<port id="1" precision="FP32">
					<dim>32</dim>
					<dim>1</dim>
					<dim>1</dim>
					<dim>1</dim>
				</port>
			</input>
			<output>
				<port id="2" precision="FP32">
					<dim>32</dim>
					<dim>3</dim>
					<dim>3</dim>
					<dim>3</dim>
				</port>
			</output>
		</layer>
		<layer id="12" name="/backbone/init_block/conv/Conv/WithoutBiases" type="Convolution" version="opset1">
			<data strides="2, 2" dilations="1, 1" pads_begin="1, 1" pads_end="1, 1" auto_pad="explicit" />
			<input>
				<port id="0" precision="FP32">
					<dim>1</dim>
					<dim>3</dim>
					<dim>800</dim>
					<dim>992</dim>
				</port>
				<port id="1" precision="FP32">
					<dim>32</dim>
					<dim>3</dim>
					<dim>3</dim>
					<dim>3</dim>
				</port>
			</input>
			<output>
				<port id="2" precision="FP32">
					<dim>1</dim>
					<dim>32</dim>
					<dim>400</dim>
					<dim>496</dim>
				</port>
			</output>
		</layer>
		<layer id="13" name="Reshape_169" type="Const" version="opset1">
			<data element_type="f32" shape="1, 32, 1, 1" offset="1024" size="128" />
			<output>
				<port id="0" precision="FP32">
					<dim>1</dim>
					<dim>32</dim>
					<dim>1</dim>
					<dim>1</dim>
				</port>
			</output>
		</layer>
		<layer id="14" name="/backbone/init_block/conv/Conv" type="Add" version="opset1">
			<data auto_broadcast="numpy" />
			<input>
				<port id="0" precision="FP32">
					<dim>1</dim>
					<dim>32</dim>
					<dim>400</dim>
					<dim>496</dim>
				</port>
				<port id="1" precision="FP32">
					<dim>1</dim>
					<dim>32</dim>
					<dim>1</dim>
					<dim>1</dim>
				</port>
			</input>
			<output>
				<port id="2" precision="FP32" names="/backbone/init_block/conv/Conv_output_0">
					<dim>1</dim>
					<dim>32</dim>
					<dim>400</dim>
					<dim>496</dim>
				</port>
			</output>
		</layer>
		<layer id="15" name="/backbone/init_block/activ/Clip" type="Clamp" version="opset1">
			<data min="0" max="6" />
			<input>
				<port id="0" precision="FP32">
					<dim>1</dim>
					<dim>32</dim>
					<dim>400</dim>
					<dim>496</dim>
				</port>
			</input>
			<output>
				<port id="1" precision="FP32" names="/backbone/init_block/activ/Clip_output_0">
					<dim>1</dim>
					<dim>32</dim>
					<dim>400</dim>
					<dim>496</dim>
				</port>
			</output>
		</layer>
		<layer id="16" name="/backbone/init_block/activ/Clip/fq_output_0/input_low" type="Const" version="opset1">
			<data element_type="f32" shape="" offset="24" size="4" />
			<output>
				<port id="0" precision="FP32" />
			</output>
		</layer>
		<layer id="17" name="/backbone/init_block/activ/Clip/fq_output_0/input_high" type="Const" version="opset1">
			<data element_type="f32" shape="" offset="1152" size="4" />
			<output>
				<port id="0" precision="FP32" />
			</output>
		</layer>
		<layer id="18" name="/backbone/init_block/activ/Clip/fq_output_0/output_low" type="Const" version="opset1">
			<data element_type="f32" shape="" offset="24" size="4" />
			<output>
				<port id="0" precision="FP32" />
			</output>
		</layer>
		<layer id="19" name="/backbone/init_block/activ/Clip/fq_output_0/output_high" type="Const" version="opset1">
			<data element_type="f32" shape="" offset="1152" size="4" />
			<output>
				<port id="0" precision="FP32" />
			</output>
		</layer>
		<layer id="20" name="/backbone/init_block/activ/Clip/fq_output_0" type="FakeQuantize" version="opset1">
			<data levels="256" auto_broadcast="numpy" />
			<input>
				<port id="0" precision="FP32">
					<dim>1</dim>
					<dim>32</dim>
					<dim>400</dim>
					<dim>496</dim>
				</port>
				<port id="1" precision="FP32" />
				<port id="2" precision="FP32" />
				<port id="3" precision="FP32" />
				<port id="4" precision="FP32" />
			</input>
			<output>
				<port id="5" precision="FP32">
					<dim>1</dim>
					<dim>32</dim>
					<dim>400</dim>
					<dim>496</dim>
				</port>
			</output>
		</layer>
		<layer id="21" name="Constant_583391" type="Const" version="opset1">
			<data element_type="i8" shape="32, 32, 1, 1" offset="1156" size="1024" />
			<output>
				<port id="0" precision="I8">
					<dim>32</dim>
					<dim>32</dim>
					<dim>1</dim>
					<dim>1</dim>
				</port>
			</output>
		</layer>
		<layer id="22" name="Convert_583392" type="Convert" version="opset1">
			<data destination_type="f32" />
			<input>
				<port id="0" precision="I8">
					<dim>32</dim>
					<dim>32</dim>
					<dim>1</dim>
					<dim>1</dim>
				</port>
			</input>
			<output>
				<port id="1" precision="FP32">
					<dim>32</dim>
					<dim>32</dim>
					<dim>1</dim>
					<dim>1</dim>
				</port>
			</output>
		</layer>
		<layer id="23" name="Constant_583393" type="Const" version="opset1">
			<data element_type="f32" shape="32, 1, 1, 1" offset="2180" size="128" />
			<output>
				<port id="0" precision="FP32">
					<dim>32</dim>
					<dim>1</dim>
					<dim>1</dim>
					<dim>1</dim>
				</port>
			</output>
		</layer>
		<layer id="24" name="/backbone/stage1/unit1/conv1/conv/Conv/WithoutBiases/fq_weights_1" type="Multiply" version="opset1">
			<data auto_broadcast="numpy" />
			<input>
				<port id="0" precision="FP32">
					<dim>32</dim>
					<dim>32</dim>
					<dim>1</dim>
					<dim>1</dim>
				</port>
				<port id="1" precision="FP32">
					<dim>32</dim>
					<dim>1</dim>
					<dim>1</dim>
					<dim>1</dim>
				</port>
			</input>
			<output>
				<port id="2" precision="FP32">
					<dim>32</dim>
					<dim>32</dim>
					<dim>1</dim>
					<dim>1</dim>
				</port>
			</output>
		</layer>
		<layer id="25" name="/backbone/stage1/unit1/conv1/conv/Conv/WithoutBiases" type="Convolution" version="opset1">
			<data strides="1, 1" dilations="1, 1" pads_begin="0, 0" pads_end="0, 0" auto_pad="explicit" />
			<input>
				<port id="0" precision="FP32">
					<dim>1</dim>
					<dim>32</dim>
					<dim>400</dim>
					<dim>496</dim>
				</port>
				<port id="1" precision="FP32">
					<dim>32</dim>
					<dim>32</dim>
					<dim>1</dim>
					<dim>1</dim>
				</port>
			</input>
			<output>
				<port id="2" precision="FP32">
					<dim>1</dim>
					<dim>32</dim>
					<dim>400</dim>
					<dim>496</dim>
				</port>
			</output>
		</layer>
		<layer id="26" name="Reshape_186" type="Const" version="opset1">
			<data element_type="f32" shape="1, 32, 1, 1" offset="2308" size="128" />
			<output>
				<port id="0" precision="FP32">
					<dim>1</dim>
					<dim>32</dim>
					<dim>1</dim>
					<dim>1</dim>
				</port>
			</output>
		</layer>
		<layer id="27" name="/backbone/stage1/unit1/conv1/conv/Conv" type="Add" version="opset1">
			<data auto_broadcast="numpy" />
			<input>
				<port id="0" precision="FP32">
					<dim>1</dim>
					<dim>32</dim>
					<dim>400</dim>
					<dim>496</dim>
				</port>
				<port id="1" precision="FP32">
					<dim>1</dim>
					<dim>32</dim>
					<dim>1</dim>
					<dim>1</dim>
				</port>
			</input>
			<output>
				<port id="2" precision="FP32" names="/backbone/stage1/unit1/conv1/conv/Conv_output_0">
					<dim>1</dim>
					<dim>32</dim>
					<dim>400</dim>
					<dim>496</dim>
				</port>
			</output>
		</layer>
		<layer id="28" name="/backbone/stage1/unit1/conv1/activ/Clip" type="Clamp" version="opset1">
			<data min="0" max="6" />
			<input>
				<port id="0" precision="FP32">
					<dim>1</dim>
					<dim>32</dim>
					<dim>400</dim>
					<dim>496</dim>
				</port>
			</input>
			<output>
				<port id="1" precision="FP32" names="/backbone/stage1/unit1/conv1/activ/Clip_output_0">
					<dim>1</dim>
					<dim>32</dim>
					<dim>400</dim>
					<dim>496</dim>
				</port>
			</output>
		</layer>
		<layer id="29" name="/backbone/stage1/unit1/conv1/activ/Clip/fq_output_0/input_low" type="Const" version="opset1">
			<data element_type="f32" shape="1, 32, 1, 1" offset="2436" size="128" />
			<output>
				<port id="0" precision="FP32">
					<dim>1</dim>
					<dim>32</dim>
					<dim>1</dim>
					<dim>1</dim>
				</port>
			</output>
		</layer>
		<layer id="30" name="/backbone/stage1/unit1/conv1/activ/Clip/fq_output_0/input_high" type="Const" version="opset1">
			<data element_type="f32" shape="1, 32, 1, 1" offset="2564" size="128" />
			<output>
				<port id="0" precision="FP32">
					<dim>1</dim>
					<dim>32</dim>
					<dim>1</dim>
					<dim>1</dim>
				</port>
			</output>
		</layer>
		<layer id="31" name="/backbone/stage1/unit1/conv1/activ/Clip/fq_output_0/output_low" type="Const" version="opset1">
			<data element_type="f32" shape="1, 32, 1, 1" offset="2436" size="128" />
			<output>
				<port id="0" precision="FP32">
					<dim>1</dim>
					<dim>32</dim>
					<dim>1</dim>
					<dim>1</dim>
				</port>
			</output>
		</layer>
		<layer id="32" name="/backbone/stage1/unit1/conv1/activ/Clip/fq_output_0/output_high" type="Const" version="opset1">
			<data element_type="f32" shape="1, 32, 1, 1" offset="2564" size="128" />
			<output>
				<port id="0" precision="FP32">
					<dim>1</dim>
					<dim>32</dim>
					<dim>1</dim>
					<dim>1</dim>
				</port>
			</output>
		</layer>
		<layer id="33" name="/backbone/stage1/unit1/conv1/activ/Clip/fq_output_0" type="FakeQuantize" version="opset1">
			<data levels="256" auto_broadcast="numpy" />
			<input>
				<port id="0" precision="FP32">
					<dim>1</dim>
					<dim>32</dim>
					<dim>400</dim>
					<dim>496</dim>
				</port>
				<port id="1" precision="FP32">
					<dim>1</dim>
					<dim>32</dim>
					<dim>1</dim>
					<dim>1</dim>
				</port>
				<port id="2" precision="FP32">
					<dim>1</dim>
					<dim>32</dim>
					<dim>1</dim>
					<dim>1</dim>
				</port>
				<port id="3" precision="FP32">
					<dim>1</dim>
					<dim>32</dim>
					<dim>1</dim>
					<dim>1</dim>
				</port>
				<port id="4" precision="FP32">
					<dim>1</dim>
					<dim>32</dim>
					<dim>1</dim>
					<dim>1</dim>
				</port>
			</input>
			<output>
				<port id="5" precision="FP32">
					<dim>1</dim>
					<dim>32</dim>
					<dim>400</dim>
					<dim>496</dim>
				</port>
			</output>
		</layer>
		<layer id="34" name="Constant_583395" type="Const" version="opset1">
			<data element_type="i8" shape="32, 1, 1, 3, 3" offset="2692" size="288" />
			<output>
				<port id="0" precision="I8">
					<dim>32</dim>
					<dim>1</dim>
					<dim>1</dim>
					<dim>3</dim>
					<dim>3</dim>
				</port>
			</output>
		</layer>
		<layer id="35" name="Convert_583396" type="Convert" version="opset1">
			<data destination_type="f32" />
			<input>
				<port id="0" precision="I8">
					<dim>32</dim>
					<dim>1</dim>
					<dim>1</dim>
					<dim>3</dim>
					<dim>3</dim>
				</port>
			</input>
			<output>
				<port id="1" precision="FP32">
					<dim>32</dim>
					<dim>1</dim>
					<dim>1</dim>
					<dim>3</dim>
					<dim>3</dim>
				</port>
			</output>
		</layer>
		<layer id="36" name="Constant_583397" type="Const" version="opset1">
			<data element_type="f32" shape="32, 1, 1, 1, 1" offset="2980" size="128" />
			<output>
				<port id="0" precision="FP32">
					<dim>32</dim>
					<dim>1</dim>
					<dim>1</dim>
					<dim>1</dim>
					<dim>1</dim>
				</port>
			</output>
		</layer>
		<layer id="37" name="/backbone/stage1/unit1/conv2/conv/Conv/WithoutBiases/fq_weights_1" type="Multiply" version="opset1">
			<data auto_broadcast="numpy" />
			<input>
				<port id="0" precision="FP32">
					<dim>32</dim>
					<dim>1</dim>
					<dim>1</dim>
					<dim>3</dim>
					<dim>3</dim>
				</port>
				<port id="1" precision="FP32">
					<dim>32</dim>
					<dim>1</dim>
					<dim>1</dim>
					<dim>1</dim>
					<dim>1</dim>
				</port>
			</input>
			<output>
				<port id="2" precision="FP32">
					<dim>32</dim>
					<dim>1</dim>
					<dim>1</dim>
					<dim>3</dim>
					<dim>3</dim>
				</port>
			</output>
		</layer>
		<layer id="38" name="/backbone/stage1/unit1/conv2/conv/Conv/WithoutBiases" type="GroupConvolution" version="opset1">
			<data strides="1, 1" pads_begin="1, 1" pads_end="1, 1" dilations="1, 1" auto_pad="explicit" />
			<input>
				<port id="0" precision="FP32">
					<dim>1</dim>
					<dim>32</dim>
					<dim>400</dim>
					<dim>496</dim>
				</port>
				<port id="1" precision="FP32">
					<dim>32</dim>
					<dim>1</dim>
					<dim>1</dim>
					<dim>3</dim>
					<dim>3</dim>
				</port>
			</input>
			<output>
				<port id="2" precision="FP32">
					<dim>1</dim>
					<dim>32</dim>
					<dim>400</dim>
					<dim>496</dim>
				</port>
			</output>
		</layer>
		<layer id="39" name="Reshape_249" type="Const" version="opset1">
			<data element_type="f32" shape="1, 32, 1, 1" offset="3108" size="128" />
			<output>
				<port id="0" precision="FP32">
					<dim>1</dim>
					<dim>32</dim>
					<dim>1</dim>
					<dim>1</dim>
				</port>
			</output>
		</layer>
		<layer id="40" name="/backbone/stage1/unit1/conv2/conv/Conv" type="Add" version="opset1">
			<data auto_broadcast="numpy" />
			<input>
				<port id="0" precision="FP32">
					<dim>1</dim>
					<dim>32</dim>
					<dim>400</dim>
					<dim>496</dim>
				</port>
				<port id="1" precision="FP32">
					<dim>1</dim>
					<dim>32</dim>
					<dim>1</dim>
					<dim>1</dim>
				</port>
			</input>
			<output>
				<port id="2" precision="FP32" names="/backbone/stage1/unit1/conv2/conv/Conv_output_0">
					<dim>1</dim>
					<dim>32</dim>
					<dim>400</dim>
					<dim>496</dim>
				</port>
			</output>
		</layer>
		<layer id="41" name="/backbone/stage1/unit1/conv2/activ/Clip" type="Clamp" version="opset1">
			<data min="0" max="6" />
			<input>
				<port id="0" precision="FP32">
					<dim>1</dim>
					<dim>32</dim>
					<dim>400</dim>
					<dim>496</dim>
				</port>
			</input>
			<output>
				<port id="1" precision="FP32" names="/backbone/stage1/unit1/conv2/activ/Clip_output_0">
					<dim>1</dim>
					<dim>32</dim>
					<dim>400</dim>
					<dim>496</dim>
				</port>
			</output>
		</layer>
		<layer id="42" name="/backbone/stage1/unit1/conv2/activ/Clip/fq_output_0/input_low" type="Const" version="opset1">
			<data element_type="f32" shape="" offset="24" size="4" />
			<output>
				<port id="0" precision="FP32" />
			</output>
		</layer>
		<layer id="43" name="/backbone/stage1/unit1/conv2/activ/Clip/fq_output_0/input_high" type="Const" version="opset1">
			<data element_type="f32" shape="" offset="3236" size="4" />
			<output>
				<port id="0" precision="FP32" />
			</output>
		</layer>
		<layer id="44" name="/backbone/stage1/unit1/conv2/activ/Clip/fq_output_0/output_low" type="Const" version="opset1">
			<data element_type="f32" shape="" offset="24" size="4" />
			<output>
				<port id="0" precision="FP32" />
			</output>
		</layer>
		<layer id="45" name="/backbone/stage1/unit1/conv2/activ/Clip/fq_output_0/output_high" type="Const" version="opset1">
			<data element_type="f32" shape="" offset="3236" size="4" />
			<output>
				<port id="0" precision="FP32" />
			</output>
		</layer>
		<layer id="46" name="/backbone/stage1/unit1/conv2/activ/Clip/fq_output_0" type="FakeQuantize" version="opset1">
			<data levels="256" auto_broadcast="numpy" />
			<input>
				<port id="0" precision="FP32">
					<dim>1</dim>
					<dim>32</dim>
					<dim>400</dim>
					<dim>496</dim>
				</port>
				<port id="1" precision="FP32" />
				<port id="2" precision="FP32" />
				<port id="3" precision="FP32" />
				<port id="4" precision="FP32" />
			</input>
			<output>
				<port id="5" precision="FP32">
					<dim>1</dim>
					<dim>32</dim>
					<dim>400</dim>
					<dim>496</dim>
				</port>
			</output>
		</layer>
		<layer id="47" name="Constant_583399" type="Const" version="opset1">
			<data element_type="i8" shape="16, 32, 1, 1" offset="3240" size="512" />
			<output>
				<port id="0" precision="I8">
					<dim>16</dim>
					<dim>32</dim>
					<dim>1</dim>
					<dim>1</dim>
				</port>
			</output>
		</layer>
		<layer id="48" name="Convert_583400" type="Convert" version="opset1">
			<data destination_type="f32" />
			<input>
				<port id="0" precision="I8">
					<dim>16</dim>
					<dim>32</dim>
					<dim>1</dim>
					<dim>1</dim>
				</port>
			</input>
			<output>
				<port id="1" precision="FP32">
					<dim>16</dim>
					<dim>32</dim>
					<dim>1</dim>
					<dim>1</dim>
				</port>
			</output>
		</layer>
		<layer id="49" name="Constant_583401" type="Const" version="opset1">
			<data element_type="f32" shape="16, 1, 1, 1" offset="3752" size="64" />
			<output>
				<port id="0" precision="FP32">
					<dim>16</dim>
					<dim>1</dim>
					<dim>1</dim>
					<dim>1</dim>
				</port>
			</output>
		</layer>
		<layer id="50" name="/backbone/stage1/unit1/conv3/conv/Conv/WithoutBiases/fq_weights_1" type="Multiply" version="opset1">
			<data auto_broadcast="numpy" />
			<input>
				<port id="0" precision="FP32">
					<dim>16</dim>
					<dim>32</dim>
					<dim>1</dim>
					<dim>1</dim>
				</port>
				<port id="1" precision="FP32">
					<dim>16</dim>
					<dim>1</dim>
					<dim>1</dim>
					<dim>1</dim>
				</port>
			</input>
			<output>
				<port id="2" precision="FP32">
					<dim>16</dim>
					<dim>32</dim>
					<dim>1</dim>
					<dim>1</dim>
				</port>
			</output>
		</layer>
		<layer id="51" name="/backbone/stage1/unit1/conv3/conv/Conv/WithoutBiases" type="Convolution" version="opset1">
			<data strides="1, 1" dilations="1, 1" pads_begin="0, 0" pads_end="0, 0" auto_pad="explicit" />
			<input>
				<port id="0" precision="FP32">
					<dim>1</dim>
					<dim>32</dim>
					<dim>400</dim>
					<dim>496</dim>
				</port>
				<port id="1" precision="FP32">
					<dim>16</dim>
					<dim>32</dim>
					<dim>1</dim>
					<dim>1</dim>
				</port>
			</input>
			<output>
				<port id="2" precision="FP32">
					<dim>1</dim>
					<dim>16</dim>
					<dim>400</dim>
					<dim>496</dim>
				</port>
			</output>
		</layer>
		<layer id="52" name="Reshape_266" type="Const" version="opset1">
			<data element_type="f32" shape="1, 16, 1, 1" offset="3816" size="64" />
			<output>
				<port id="0" precision="FP32">
					<dim>1</dim>
					<dim>16</dim>
					<dim>1</dim>
					<dim>1</dim>
				</port>
			</output>
		</layer>
		<layer id="53" name="/backbone/stage1/unit1/conv3/conv/Conv" type="Add" version="opset1">
			<data auto_broadcast="numpy" />
			<input>
				<port id="0" precision="FP32">
					<dim>1</dim>
					<dim>16</dim>
					<dim>400</dim>
					<dim>496</dim>
				</port>
				<port id="1" precision="FP32">
					<dim>1</dim>
					<dim>16</dim>
					<dim>1</dim>
					<dim>1</dim>
				</port>
			</input>
			<output>
				<port id="2" precision="FP32" names="/backbone/stage1/unit1/conv3/conv/Conv_output_0">
					<dim>1</dim>
					<dim>16</dim>
					<dim>400</dim>
					<dim>496</dim>
				</port>
			</output>
		</layer>
		<layer id="54" name="/backbone/stage1/unit1/conv3/conv/Conv/fq_output_0/input_low" type="Const" version="opset1">
			<data element_type="f32" shape="" offset="3880" size="4" />
			<output>
				<port id="0" precision="FP32" />
			</output>
		</layer>
		<layer id="55" name="/backbone/stage1/unit1/conv3/conv/Conv/fq_output_0/input_high" type="Const" version="opset1">
			<data element_type="f32" shape="" offset="3884" size="4" />
			<output>
				<port id="0" precision="FP32" />
			</output>
		</layer>
		<layer id="56" name="/backbone/stage1/unit1/conv3/conv/Conv/fq_output_0/output_low" type="Const" version="opset1">
			<data element_type="f32" shape="" offset="3880" size="4" />
			<output>
				<port id="0" precision="FP32" />
			</output>
		</layer>
		<layer id="57" name="/backbone/stage1/unit1/conv3/conv/Conv/fq_output_0/output_high" type="Const" version="opset1">
			<data element_type="f32" shape="" offset="3884" size="4" />
			<output>
				<port id="0" precision="FP32" />
			</output>
		</layer>
		<layer id="58" name="/backbone/stage1/unit1/conv3/conv/Conv/fq_output_0" type="FakeQuantize" version="opset1">
			<data levels="256" auto_broadcast="numpy" />
			<input>
				<port id="0" precision="FP32">
					<dim>1</dim>
					<dim>16</dim>
					<dim>400</dim>
					<dim>496</dim>
				</port>
				<port id="1" precision="FP32" />
				<port id="2" precision="FP32" />
				<port id="3" precision="FP32" />
				<port id="4" precision="FP32" />
			</input>
			<output>
				<port id="5" precision="FP32">
					<dim>1</dim>
					<dim>16</dim>
					<dim>400</dim>
					<dim>496</dim>
				</port>
			</output>
		</layer>
		<layer id="59" name="Constant_583403" type="Const" version="opset1">
			<data element_type="i8" shape="96, 16, 1, 1" offset="3888" size="1536" />
			<output>
				<port id="0" precision="I8">
					<dim>96</dim>
					<dim>16</dim>
					<dim>1</dim>
					<dim>1</dim>
				</port>
			</output>
		</layer>
		<layer id="60" name="Convert_583404" type="Convert" version="opset1">
			<data destination_type="f32" />
			<input>
				<port id="0" precision="I8">
					<dim>96</dim>
					<dim>16</dim>
					<dim>1</dim>
					<dim>1</dim>
				</port>
			</input>
			<output>
				<port id="1" precision="FP32">
					<dim>96</dim>
					<dim>16</dim>
					<dim>1</dim>
					<dim>1</dim>
				</port>
			</output>
		</layer>
		<layer id="61" name="Constant_583405" type="Const" version="opset1">
			<data element_type="f32" shape="96, 1, 1, 1" offset="5424" size="384" />
			<output>
				<port id="0" precision="FP32">
					<dim>96</dim>
					<dim>1</dim>
					<dim>1</dim>
					<dim>1</dim>
				</port>
			</output>
		</layer>
		<layer id="62" name="/backbone/stage2/unit1/conv1/conv/Conv/WithoutBiases/fq_weights_1" type="Multiply" version="opset1">
			<data auto_broadcast="numpy" />
			<input>
				<port id="0" precision="FP32">
					<dim>96</dim>
					<dim>16</dim>
					<dim>1</dim>
					<dim>1</dim>
				</port>
				<port id="1" precision="FP32">
					<dim>96</dim>
					<dim>1</dim>
					<dim>1</dim>
					<dim>1</dim>
				</port>
			</input>
			<output>
				<port id="2" precision="FP32">
					<dim>96</dim>
					<dim>16</dim>
					<dim>1</dim>
					<dim>1</dim>
				</port>
			</output>
		</layer>
		<layer id="63" name="/backbone/stage2/unit1/conv1/conv/Conv/WithoutBiases" type="Convolution" version="opset1">
			<data strides="1, 1" dilations="1, 1" pads_begin="0, 0" pads_end="0, 0" auto_pad="explicit" />
			<input>
				<port id="0" precision="FP32">
					<dim>1</dim>
					<dim>16</dim>
					<dim>400</dim>
					<dim>496</dim>
				</port>
				<port id="1" precision="FP32">
					<dim>96</dim>
					<dim>16</dim>
					<dim>1</dim>
					<dim>1</dim>
				</port>
			</input>
			<output>
				<port id="2" precision="FP32">
					<dim>1</dim>
					<dim>96</dim>
					<dim>400</dim>
					<dim>496</dim>
				</port>
			</output>
		</layer>
		<layer id="64" name="Reshape_279" type="Const" version="opset1">
			<data element_type="f32" shape="1, 96, 1, 1" offset="5808" size="384" />
			<output>
				<port id="0" precision="FP32">
					<dim>1</dim>
					<dim>96</dim>
					<dim>1</dim>
					<dim>1</dim>
				</port>
			</output>
		</layer>
		<layer id="65" name="/backbone/stage2/unit1/conv1/conv/Conv" type="Add" version="opset1">
			<data auto_broadcast="numpy" />
			<input>
				<port id="0" precision="FP32">
					<dim>1</dim>
					<dim>96</dim>
					<dim>400</dim>
					<dim>496</dim>
				</port>
				<port id="1" precision="FP32">
					<dim>1</dim>
					<dim>96</dim>
					<dim>1</dim>
					<dim>1</dim>
				</port>
			</input>
			<output>
				<port id="2" precision="FP32" names="/backbone/stage2/unit1/conv1/conv/Conv_output_0">
					<dim>1</dim>
					<dim>96</dim>
					<dim>400</dim>
					<dim>496</dim>
				</port>
			</output>
		</layer>
		<layer id="66" name="/backbone/stage2/unit1/conv1/activ/Clip" type="Clamp" version="opset1">
			<data min="0" max="6" />
			<input>
				<port id="0" precision="FP32">
					<dim>1</dim>
					<dim>96</dim>
					<dim>400</dim>
					<dim>496</dim>
				</port>
			</input>
			<output>
				<port id="1" precision="FP32" names="/backbone/stage2/unit1/conv1/activ/Clip_output_0">
					<dim>1</dim>
					<dim>96</dim>
					<dim>400</dim>
					<dim>496</dim>
				</port>
			</output>
		</layer>
		<layer id="67" name="/backbone/stage2/unit1/conv1/activ/Clip/fq_output_0/input_low" type="Const" version="opset1">
			<data element_type="f32" shape="1, 96, 1, 1" offset="6192" size="384" />
			<output>
				<port id="0" precision="FP32">
					<dim>1</dim>
					<dim>96</dim>
					<dim>1</dim>
					<dim>1</dim>
				</port>
			</output>
		</layer>
		<layer id="68" name="/backbone/stage2/unit1/conv1/activ/Clip/fq_output_0/input_high" type="Const" version="opset1">
			<data element_type="f32" shape="1, 96, 1, 1" offset="6576" size="384" />
			<output>
				<port id="0" precision="FP32">
					<dim>1</dim>
					<dim>96</dim>
					<dim>1</dim>
					<dim>1</dim>
				</port>
			</output>
		</layer>
		<layer id="69" name="/backbone/stage2/unit1/conv1/activ/Clip/fq_output_0/output_low" type="Const" version="opset1">
			<data element_type="f32" shape="1, 96, 1, 1" offset="6192" size="384" />
			<output>
				<port id="0" precision="FP32">
					<dim>1</dim>
					<dim>96</dim>
					<dim>1</dim>
					<dim>1</dim>
				</port>
			</output>
		</layer>
		<layer id="70" name="/backbone/stage2/unit1/conv1/activ/Clip/fq_output_0/output_high" type="Const" version="opset1">
			<data element_type="f32" shape="1, 96, 1, 1" offset="6576" size="384" />
			<output>
				<port id="0" precision="FP32">
					<dim>1</dim>
					<dim>96</dim>
					<dim>1</dim>
					<dim>1</dim>
				</port>
			</output>
		</layer>
		<layer id="71" name="/backbone/stage2/unit1/conv1/activ/Clip/fq_output_0" type="FakeQuantize" version="opset1">
			<data levels="256" auto_broadcast="numpy" />
			<input>
				<port id="0" precision="FP32">
					<dim>1</dim>
					<dim>96</dim>
					<dim>400</dim>
					<dim>496</dim>
				</port>
				<port id="1" precision="FP32">
					<dim>1</dim>
					<dim>96</dim>
					<dim>1</dim>
					<dim>1</dim>
				</port>
				<port id="2" precision="FP32">
					<dim>1</dim>
					<dim>96</dim>
					<dim>1</dim>
					<dim>1</dim>
				</port>
				<port id="3" precision="FP32">
					<dim>1</dim>
					<dim>96</dim>
					<dim>1</dim>
					<dim>1</dim>
				</port>
				<port id="4" precision="FP32">
					<dim>1</dim>
					<dim>96</dim>
					<dim>1</dim>
					<dim>1</dim>
				</port>
			</input>
			<output>
				<port id="5" precision="FP32">
					<dim>1</dim>
					<dim>96</dim>
					<dim>400</dim>
					<dim>496</dim>
				</port>
			</output>
		</layer>
		<layer id="72" name="Constant_583407" type="Const" version="opset1">
			<data element_type="i8" shape="96, 1, 1, 3, 3" offset="6960" size="864" />
			<output>
				<port id="0" precision="I8">
					<dim>96</dim>
					<dim>1</dim>
					<dim>1</dim>
					<dim>3</dim>
					<dim>3</dim>
				</port>
			</output>
		</layer>
		<layer id="73" name="Convert_583408" type="Convert" version="opset1">
			<data destination_type="f32" />
			<input>
				<port id="0" precision="I8">
					<dim>96</dim>
					<dim>1</dim>
					<dim>1</dim>
					<dim>3</dim>
					<dim>3</dim>
				</port>
			</input>
			<output>
				<port id="1" precision="FP32">
					<dim>96</dim>
					<dim>1</dim>
					<dim>1</dim>
					<dim>3</dim>
					<dim>3</dim>
				</port>
			</output>
		</layer>
		<layer id="74" name="Constant_583409" type="Const" version="opset1">
			<data element_type="f32" shape="96, 1, 1, 1, 1" offset="7824" size="384" />
			<output>
				<port id="0" precision="FP32">
					<dim>96</dim>
					<dim>1</dim>
					<dim>1</dim>
					<dim>1</dim>
					<dim>1</dim>
				</port>
			</output>
		</layer>
		<layer id="75" name="/backbone/stage2/unit1/conv2/conv/Conv/WithoutBiases/fq_weights_1" type="Multiply" version="opset1">
			<data auto_broadcast="numpy" />
			<input>
				<port id="0" precision="FP32">
					<dim>96</dim>
					<dim>1</dim>
					<dim>1</dim>
					<dim>3</dim>
					<dim>3</dim>
				</port>
				<port id="1" precision="FP32">
					<dim>96</dim>
					<dim>1</dim>
					<dim>1</dim>
					<dim>1</dim>
					<dim>1</dim>
				</port>
			</input>
			<output>
				<port id="2" precision="FP32">
					<dim>96</dim>
					<dim>1</dim>
					<dim>1</dim>
					<dim>3</dim>
					<dim>3</dim>
				</port>
			</output>
		</layer>
		<layer id="76" name="/backbone/stage2/unit1/conv2/conv/Conv/WithoutBiases" type="GroupConvolution" version="opset1">
			<data strides="2, 2" pads_begin="1, 1" pads_end="1, 1" dilations="1, 1" auto_pad="explicit" />
			<input>
				<port id="0" precision="FP32">
					<dim>1</dim>
					<dim>96</dim>
					<dim>400</dim>
					<dim>496</dim>
				</port>
				<port id="1" precision="FP32">
					<dim>96</dim>
					<dim>1</dim>
					<dim>1</dim>
					<dim>3</dim>
					<dim>3</dim>
				</port>
			</input>
			<output>
				<port id="2" precision="FP32">
					<dim>1</dim>
					<dim>96</dim>
					<dim>200</dim>
					<dim>248</dim>
				</port>
			</output>
		</layer>
		<layer id="77" name="Reshape_342" type="Const" version="opset1">
			<data element_type="f32" shape="1, 96, 1, 1" offset="8208" size="384" />
			<output>
				<port id="0" precision="FP32">
					<dim>1</dim>
					<dim>96</dim>
					<dim>1</dim>
					<dim>1</dim>
				</port>
			</output>
		</layer>
		<layer id="78" name="/backbone/stage2/unit1/conv2/conv/Conv" type="Add" version="opset1">
			<data auto_broadcast="numpy" />
			<input>
				<port id="0" precision="FP32">
					<dim>1</dim>
					<dim>96</dim>
					<dim>200</dim>
					<dim>248</dim>
				</port>
				<port id="1" precision="FP32">
					<dim>1</dim>
					<dim>96</dim>
					<dim>1</dim>
					<dim>1</dim>
				</port>
			</input>
			<output>
				<port id="2" precision="FP32" names="/backbone/stage2/unit1/conv2/conv/Conv_output_0">
					<dim>1</dim>
					<dim>96</dim>
					<dim>200</dim>
					<dim>248</dim>
				</port>
			</output>
		</layer>
		<layer id="79" name="/backbone/stage2/unit1/conv2/activ/Clip" type="Clamp" version="opset1">
			<data min="0" max="6" />
			<input>
				<port id="0" precision="FP32">
					<dim>1</dim>
					<dim>96</dim>
					<dim>200</dim>
					<dim>248</dim>
				</port>
			</input>
			<output>
				<port id="1" precision="FP32" names="/backbone/stage2/unit1/conv2/activ/Clip_output_0">
					<dim>1</dim>
					<dim>96</dim>
					<dim>200</dim>
					<dim>248</dim>
				</port>
			</output>
		</layer>
		<layer id="80" name="/backbone/stage2/unit1/conv2/activ/Clip/fq_output_0/input_low" type="Const" version="opset1">
			<data element_type="f32" shape="" offset="24" size="4" />
			<output>
				<port id="0" precision="FP32" />
			</output>
		</layer>
		<layer id="81" name="/backbone/stage2/unit1/conv2/activ/Clip/fq_output_0/input_high" type="Const" version="opset1">
			<data element_type="f32" shape="" offset="8592" size="4" />
			<output>
				<port id="0" precision="FP32" />
			</output>
		</layer>
		<layer id="82" name="/backbone/stage2/unit1/conv2/activ/Clip/fq_output_0/output_low" type="Const" version="opset1">
			<data element_type="f32" shape="" offset="24" size="4" />
			<output>
				<port id="0" precision="FP32" />
			</output>
		</layer>
		<layer id="83" name="/backbone/stage2/unit1/conv2/activ/Clip/fq_output_0/output_high" type="Const" version="opset1">
			<data element_type="f32" shape="" offset="8592" size="4" />
			<output>
				<port id="0" precision="FP32" />
			</output>
		</layer>
		<layer id="84" name="/backbone/stage2/unit1/conv2/activ/Clip/fq_output_0" type="FakeQuantize" version="opset1">
			<data levels="256" auto_broadcast="numpy" />
			<input>
				<port id="0" precision="FP32">
					<dim>1</dim>
					<dim>96</dim>
					<dim>200</dim>
					<dim>248</dim>
				</port>
				<port id="1" precision="FP32" />
				<port id="2" precision="FP32" />
				<port id="3" precision="FP32" />
				<port id="4" precision="FP32" />
			</input>
			<output>
				<port id="5" precision="FP32">
					<dim>1</dim>
					<dim>96</dim>
					<dim>200</dim>
					<dim>248</dim>
				</port>
			</output>
		</layer>
		<layer id="85" name="Constant_583411" type="Const" version="opset1">
			<data element_type="i8" shape="24, 96, 1, 1" offset="8596" size="2304" />
			<output>
				<port id="0" precision="I8">
					<dim>24</dim>
					<dim>96</dim>
					<dim>1</dim>
					<dim>1</dim>
				</port>
			</output>
		</layer>
		<layer id="86" name="Convert_583412" type="Convert" version="opset1">
			<data destination_type="f32" />
			<input>
				<port id="0" precision="I8">
					<dim>24</dim>
					<dim>96</dim>
					<dim>1</dim>
					<dim>1</dim>
				</port>
			</input>
			<output>
				<port id="1" precision="FP32">
					<dim>24</dim>
					<dim>96</dim>
					<dim>1</dim>
					<dim>1</dim>
				</port>
			</output>
		</layer>
		<layer id="87" name="Constant_583413" type="Const" version="opset1">
			<data element_type="f32" shape="24, 1, 1, 1" offset="10900" size="96" />
			<output>
				<port id="0" precision="FP32">
					<dim>24</dim>
					<dim>1</dim>
					<dim>1</dim>
					<dim>1</dim>
				</port>
			</output>
		</layer>
		<layer id="88" name="/backbone/stage2/unit1/conv3/conv/Conv/WithoutBiases/fq_weights_1" type="Multiply" version="opset1">
			<data auto_broadcast="numpy" />
			<input>
				<port id="0" precision="FP32">
					<dim>24</dim>
					<dim>96</dim>
					<dim>1</dim>
					<dim>1</dim>
				</port>
				<port id="1" precision="FP32">
					<dim>24</dim>
					<dim>1</dim>
					<dim>1</dim>
					<dim>1</dim>
				</port>
			</input>
			<output>
				<port id="2" precision="FP32">
					<dim>24</dim>
					<dim>96</dim>
					<dim>1</dim>
					<dim>1</dim>
				</port>
			</output>
		</layer>
		<layer id="89" name="/backbone/stage2/unit1/conv3/conv/Conv/WithoutBiases" type="Convolution" version="opset1">
			<data strides="1, 1" dilations="1, 1" pads_begin="0, 0" pads_end="0, 0" auto_pad="explicit" />
			<input>
				<port id="0" precision="FP32">
					<dim>1</dim>
					<dim>96</dim>
					<dim>200</dim>
					<dim>248</dim>
				</port>
				<port id="1" precision="FP32">
					<dim>24</dim>
					<dim>96</dim>
					<dim>1</dim>
					<dim>1</dim>
				</port>
			</input>
			<output>
				<port id="2" precision="FP32">
					<dim>1</dim>
					<dim>24</dim>
					<dim>200</dim>
					<dim>248</dim>
				</port>
			</output>
		</layer>
		<layer id="90" name="Reshape_359" type="Const" version="opset1">
			<data element_type="f32" shape="1, 24, 1, 1" offset="10996" size="96" />
			<output>
				<port id="0" precision="FP32">
					<dim>1</dim>
					<dim>24</dim>
					<dim>1</dim>
					<dim>1</dim>
				</port>
			</output>
		</layer>
		<layer id="91" name="/backbone/stage2/unit1/conv3/conv/Conv" type="Add" version="opset1">
			<data auto_broadcast="numpy" />
			<input>
				<port id="0" precision="FP32">
					<dim>1</dim>
					<dim>24</dim>
					<dim>200</dim>
					<dim>248</dim>
				</port>
				<port id="1" precision="FP32">
					<dim>1</dim>
					<dim>24</dim>
					<dim>1</dim>
					<dim>1</dim>
				</port>
			</input>
			<output>
				<port id="2" precision="FP32" names="/backbone/stage2/unit1/conv3/conv/Conv_output_0">
					<dim>1</dim>
					<dim>24</dim>
					<dim>200</dim>
					<dim>248</dim>
				</port>
			</output>
		</layer>
		<layer id="92" name="/backbone/stage2/unit1/conv3/conv/Conv/fq_output_0/input_low" type="Const" version="opset1">
			<data element_type="f32" shape="" offset="11092" size="4" />
			<output>
				<port id="0" precision="FP32" />
			</output>
		</layer>
		<layer id="93" name="/backbone/stage2/unit1/conv3/conv/Conv/fq_output_0/input_high" type="Const" version="opset1">
			<data element_type="f32" shape="" offset="11096" size="4" />
			<output>
				<port id="0" precision="FP32" />
			</output>
		</layer>
		<layer id="94" name="/backbone/stage2/unit1/conv3/conv/Conv/fq_output_0/output_low" type="Const" version="opset1">
			<data element_type="f32" shape="" offset="11092" size="4" />
			<output>
				<port id="0" precision="FP32" />
			</output>
		</layer>
		<layer id="95" name="/backbone/stage2/unit1/conv3/conv/Conv/fq_output_0/output_high" type="Const" version="opset1">
			<data element_type="f32" shape="" offset="11096" size="4" />
			<output>
				<port id="0" precision="FP32" />
			</output>
		</layer>
		<layer id="96" name="/backbone/stage2/unit1/conv3/conv/Conv/fq_output_0" type="FakeQuantize" version="opset1">
			<data levels="256" auto_broadcast="numpy" />
			<input>
				<port id="0" precision="FP32">
					<dim>1</dim>
					<dim>24</dim>
					<dim>200</dim>
					<dim>248</dim>
				</port>
				<port id="1" precision="FP32" />
				<port id="2" precision="FP32" />
				<port id="3" precision="FP32" />
				<port id="4" precision="FP32" />
			</input>
			<output>
				<port id="5" precision="FP32">
					<dim>1</dim>
					<dim>24</dim>
					<dim>200</dim>
					<dim>248</dim>
				</port>
			</output>
		</layer>
		<layer id="97" name="Constant_583415" type="Const" version="opset1">
			<data element_type="i8" shape="144, 24, 1, 1" offset="11100" size="3456" />
			<output>
				<port id="0" precision="I8">
					<dim>144</dim>
					<dim>24</dim>
					<dim>1</dim>
					<dim>1</dim>
				</port>
			</output>
		</layer>
		<layer id="98" name="Convert_583416" type="Convert" version="opset1">
			<data destination_type="f32" />
			<input>
				<port id="0" precision="I8">
					<dim>144</dim>
					<dim>24</dim>
					<dim>1</dim>
					<dim>1</dim>
				</port>
			</input>
			<output>
				<port id="1" precision="FP32">
					<dim>144</dim>
					<dim>24</dim>
					<dim>1</dim>
					<dim>1</dim>
				</port>
			</output>
		</layer>
		<layer id="99" name="Constant_583417" type="Const" version="opset1">
			<data element_type="f32" shape="144, 1, 1, 1" offset="14556" size="576" />
			<output>
				<port id="0" precision="FP32">
					<dim>144</dim>
					<dim>1</dim>
					<dim>1</dim>
					<dim>1</dim>
				</port>
			</output>
		</layer>
		<layer id="100" name="/backbone/stage2/unit2/conv1/conv/Conv/WithoutBiases/fq_weights_1" type="Multiply" version="opset1">
			<data auto_broadcast="numpy" />
			<input>
				<port id="0" precision="FP32">
					<dim>144</dim>
					<dim>24</dim>
					<dim>1</dim>
					<dim>1</dim>
				</port>
				<port id="1" precision="FP32">
					<dim>144</dim>
					<dim>1</dim>
					<dim>1</dim>
					<dim>1</dim>
				</port>
			</input>
			<output>
				<port id="2" precision="FP32">
					<dim>144</dim>
					<dim>24</dim>
					<dim>1</dim>
					<dim>1</dim>
				</port>
			</output>
		</layer>
		<layer id="101" name="/backbone/stage2/unit2/conv1/conv/Conv/WithoutBiases" type="Convolution" version="opset1">
			<data strides="1, 1" dilations="1, 1" pads_begin="0, 0" pads_end="0, 0" auto_pad="explicit" />
			<input>
				<port id="0" precision="FP32">
					<dim>1</dim>
					<dim>24</dim>
					<dim>200</dim>
					<dim>248</dim>
				</port>
				<port id="1" precision="FP32">
					<dim>144</dim>
					<dim>24</dim>
					<dim>1</dim>
					<dim>1</dim>
				</port>
			</input>
			<output>
				<port id="2" precision="FP32">
					<dim>1</dim>
					<dim>144</dim>
					<dim>200</dim>
					<dim>248</dim>
				</port>
			</output>
		</layer>
		<layer id="102" name="Reshape_372" type="Const" version="opset1">
			<data element_type="f32" shape="1, 144, 1, 1" offset="15132" size="576" />
			<output>
				<port id="0" precision="FP32">
					<dim>1</dim>
					<dim>144</dim>
					<dim>1</dim>
					<dim>1</dim>
				</port>
			</output>
		</layer>
		<layer id="103" name="/backbone/stage2/unit2/conv1/conv/Conv" type="Add" version="opset1">
			<data auto_broadcast="numpy" />
			<input>
				<port id="0" precision="FP32">
					<dim>1</dim>
					<dim>144</dim>
					<dim>200</dim>
					<dim>248</dim>
				</port>
				<port id="1" precision="FP32">
					<dim>1</dim>
					<dim>144</dim>
					<dim>1</dim>
					<dim>1</dim>
				</port>
			</input>
			<output>
				<port id="2" precision="FP32" names="/backbone/stage2/unit2/conv1/conv/Conv_output_0">
					<dim>1</dim>
					<dim>144</dim>
					<dim>200</dim>
					<dim>248</dim>
				</port>
			</output>
		</layer>
		<layer id="104" name="/backbone/stage2/unit2/conv1/activ/Clip" type="Clamp" version="opset1">
			<data min="0" max="6" />
			<input>
				<port id="0" precision="FP32">
					<dim>1</dim>
					<dim>144</dim>
					<dim>200</dim>
					<dim>248</dim>
				</port>
			</input>
			<output>
				<port id="1" precision="FP32" names="/backbone/stage2/unit2/conv1/activ/Clip_output_0">
					<dim>1</dim>
					<dim>144</dim>
					<dim>200</dim>
					<dim>248</dim>
				</port>
			</output>
		</layer>
		<layer id="105" name="/backbone/stage2/unit2/conv1/activ/Clip/fq_output_0/input_low" type="Const" version="opset1">
			<data element_type="f32" shape="1, 144, 1, 1" offset="15708" size="576" />
			<output>
				<port id="0" precision="FP32">
					<dim>1</dim>
					<dim>144</dim>
					<dim>1</dim>
					<dim>1</dim>
				</port>
			</output>
		</layer>
		<layer id="106" name="/backbone/stage2/unit2/conv1/activ/Clip/fq_output_0/input_high" type="Const" version="opset1">
			<data element_type="f32" shape="1, 144, 1, 1" offset="16284" size="576" />
			<output>
				<port id="0" precision="FP32">
					<dim>1</dim>
					<dim>144</dim>
					<dim>1</dim>
					<dim>1</dim>
				</port>
			</output>
		</layer>
		<layer id="107" name="/backbone/stage2/unit2/conv1/activ/Clip/fq_output_0/output_low" type="Const" version="opset1">
			<data element_type="f32" shape="1, 144, 1, 1" offset="15708" size="576" />
			<output>
				<port id="0" precision="FP32">
					<dim>1</dim>
					<dim>144</dim>
					<dim>1</dim>
					<dim>1</dim>
				</port>
			</output>
		</layer>
		<layer id="108" name="/backbone/stage2/unit2/conv1/activ/Clip/fq_output_0/output_high" type="Const" version="opset1">
			<data element_type="f32" shape="1, 144, 1, 1" offset="16284" size="576" />
			<output>
				<port id="0" precision="FP32">
					<dim>1</dim>
					<dim>144</dim>
					<dim>1</dim>
					<dim>1</dim>
				</port>
			</output>
		</layer>
		<layer id="109" name="/backbone/stage2/unit2/conv1/activ/Clip/fq_output_0" type="FakeQuantize" version="opset1">
			<data levels="256" auto_broadcast="numpy" />
			<input>
				<port id="0" precision="FP32">
					<dim>1</dim>
					<dim>144</dim>
					<dim>200</dim>
					<dim>248</dim>
				</port>
				<port id="1" precision="FP32">
					<dim>1</dim>
					<dim>144</dim>
					<dim>1</dim>
					<dim>1</dim>
				</port>
				<port id="2" precision="FP32">
					<dim>1</dim>
					<dim>144</dim>
					<dim>1</dim>
					<dim>1</dim>
				</port>
				<port id="3" precision="FP32">
					<dim>1</dim>
					<dim>144</dim>
					<dim>1</dim>
					<dim>1</dim>
				</port>
				<port id="4" precision="FP32">
					<dim>1</dim>
					<dim>144</dim>
					<dim>1</dim>
					<dim>1</dim>
				</port>
			</input>
			<output>
				<port id="5" precision="FP32">
					<dim>1</dim>
					<dim>144</dim>
					<dim>200</dim>
					<dim>248</dim>
				</port>
			</output>
		</layer>
		<layer id="110" name="Constant_583419" type="Const" version="opset1">
			<data element_type="i8" shape="144, 1, 1, 3, 3" offset="16860" size="1296" />
			<output>
				<port id="0" precision="I8">
					<dim>144</dim>
					<dim>1</dim>
					<dim>1</dim>
					<dim>3</dim>
					<dim>3</dim>
				</port>
			</output>
		</layer>
		<layer id="111" name="Convert_583420" type="Convert" version="opset1">
			<data destination_type="f32" />
			<input>
				<port id="0" precision="I8">
					<dim>144</dim>
					<dim>1</dim>
					<dim>1</dim>
					<dim>3</dim>
					<dim>3</dim>
				</port>
			</input>
			<output>
				<port id="1" precision="FP32">
					<dim>144</dim>
					<dim>1</dim>
					<dim>1</dim>
					<dim>3</dim>
					<dim>3</dim>
				</port>
			</output>
		</layer>
		<layer id="112" name="Constant_583421" type="Const" version="opset1">
			<data element_type="f32" shape="144, 1, 1, 1, 1" offset="18156" size="576" />
			<output>
				<port id="0" precision="FP32">
					<dim>144</dim>
					<dim>1</dim>
					<dim>1</dim>
					<dim>1</dim>
					<dim>1</dim>
				</port>
			</output>
		</layer>
		<layer id="113" name="/backbone/stage2/unit2/conv2/conv/Conv/WithoutBiases/fq_weights_1" type="Multiply" version="opset1">
			<data auto_broadcast="numpy" />
			<input>
				<port id="0" precision="FP32">
					<dim>144</dim>
					<dim>1</dim>
					<dim>1</dim>
					<dim>3</dim>
					<dim>3</dim>
				</port>
				<port id="1" precision="FP32">
					<dim>144</dim>
					<dim>1</dim>
					<dim>1</dim>
					<dim>1</dim>
					<dim>1</dim>
				</port>
			</input>
			<output>
				<port id="2" precision="FP32">
					<dim>144</dim>
					<dim>1</dim>
					<dim>1</dim>
					<dim>3</dim>
					<dim>3</dim>
				</port>
			</output>
		</layer>
		<layer id="114" name="/backbone/stage2/unit2/conv2/conv/Conv/WithoutBiases" type="GroupConvolution" version="opset1">
			<data strides="1, 1" pads_begin="1, 1" pads_end="1, 1" dilations="1, 1" auto_pad="explicit" />
			<input>
				<port id="0" precision="FP32">
					<dim>1</dim>
					<dim>144</dim>
					<dim>200</dim>
					<dim>248</dim>
				</port>
				<port id="1" precision="FP32">
					<dim>144</dim>
					<dim>1</dim>
					<dim>1</dim>
					<dim>3</dim>
					<dim>3</dim>
				</port>
			</input>
			<output>
				<port id="2" precision="FP32">
					<dim>1</dim>
					<dim>144</dim>
					<dim>200</dim>
					<dim>248</dim>
				</port>
			</output>
		</layer>
		<layer id="115" name="Reshape_435" type="Const" version="opset1">
			<data element_type="f32" shape="1, 144, 1, 1" offset="18732" size="576" />
			<output>
				<port id="0" precision="FP32">
					<dim>1</dim>
					<dim>144</dim>
					<dim>1</dim>
					<dim>1</dim>
				</port>
			</output>
		</layer>
		<layer id="116" name="/backbone/stage2/unit2/conv2/conv/Conv" type="Add" version="opset1">
			<data auto_broadcast="numpy" />
			<input>
				<port id="0" precision="FP32">
					<dim>1</dim>
					<dim>144</dim>
					<dim>200</dim>
					<dim>248</dim>
				</port>
				<port id="1" precision="FP32">
					<dim>1</dim>
					<dim>144</dim>
					<dim>1</dim>
					<dim>1</dim>
				</port>
			</input>
			<output>
				<port id="2" precision="FP32" names="/backbone/stage2/unit2/conv2/conv/Conv_output_0">
					<dim>1</dim>
					<dim>144</dim>
					<dim>200</dim>
					<dim>248</dim>
				</port>
			</output>
		</layer>
		<layer id="117" name="/backbone/stage2/unit2/conv2/activ/Clip" type="Clamp" version="opset1">
			<data min="0" max="6" />
			<input>
				<port id="0" precision="FP32">
					<dim>1</dim>
					<dim>144</dim>
					<dim>200</dim>
					<dim>248</dim>
				</port>
			</input>
			<output>
				<port id="1" precision="FP32" names="/backbone/stage2/unit2/conv2/activ/Clip_output_0">
					<dim>1</dim>
					<dim>144</dim>
					<dim>200</dim>
					<dim>248</dim>
				</port>
			</output>
		</layer>
		<layer id="118" name="/backbone/stage2/unit2/conv2/activ/Clip/fq_output_0/input_low" type="Const" version="opset1">
			<data element_type="f32" shape="" offset="24" size="4" />
			<output>
				<port id="0" precision="FP32" />
			</output>
		</layer>
		<layer id="119" name="/backbone/stage2/unit2/conv2/activ/Clip/fq_output_0/input_high" type="Const" version="opset1">
			<data element_type="f32" shape="" offset="19308" size="4" />
			<output>
				<port id="0" precision="FP32" />
			</output>
		</layer>
		<layer id="120" name="/backbone/stage2/unit2/conv2/activ/Clip/fq_output_0/output_low" type="Const" version="opset1">
			<data element_type="f32" shape="" offset="24" size="4" />
			<output>
				<port id="0" precision="FP32" />
			</output>
		</layer>
		<layer id="121" name="/backbone/stage2/unit2/conv2/activ/Clip/fq_output_0/output_high" type="Const" version="opset1">
			<data element_type="f32" shape="" offset="19308" size="4" />
			<output>
				<port id="0" precision="FP32" />
			</output>
		</layer>
		<layer id="122" name="/backbone/stage2/unit2/conv2/activ/Clip/fq_output_0" type="FakeQuantize" version="opset1">
			<data levels="256" auto_broadcast="numpy" />
			<input>
				<port id="0" precision="FP32">
					<dim>1</dim>
					<dim>144</dim>
					<dim>200</dim>
					<dim>248</dim>
				</port>
				<port id="1" precision="FP32" />
				<port id="2" precision="FP32" />
				<port id="3" precision="FP32" />
				<port id="4" precision="FP32" />
			</input>
			<output>
				<port id="5" precision="FP32">
					<dim>1</dim>
					<dim>144</dim>
					<dim>200</dim>
					<dim>248</dim>
				</port>
			</output>
		</layer>
		<layer id="123" name="Constant_583423" type="Const" version="opset1">
			<data element_type="i8" shape="24, 144, 1, 1" offset="19312" size="3456" />
			<output>
				<port id="0" precision="I8">
					<dim>24</dim>
					<dim>144</dim>
					<dim>1</dim>
					<dim>1</dim>
				</port>
			</output>
		</layer>
		<layer id="124" name="Convert_583424" type="Convert" version="opset1">
			<data destination_type="f32" />
			<input>
				<port id="0" precision="I8">
					<dim>24</dim>
					<dim>144</dim>
					<dim>1</dim>
					<dim>1</dim>
				</port>
			</input>
			<output>
				<port id="1" precision="FP32">
					<dim>24</dim>
					<dim>144</dim>
					<dim>1</dim>
					<dim>1</dim>
				</port>
			</output>
		</layer>
		<layer id="125" name="Constant_583425" type="Const" version="opset1">
			<data element_type="f32" shape="24, 1, 1, 1" offset="22768" size="96" />
			<output>
				<port id="0" precision="FP32">
					<dim>24</dim>
					<dim>1</dim>
					<dim>1</dim>
					<dim>1</dim>
				</port>
			</output>
		</layer>
		<layer id="126" name="/backbone/stage2/unit2/conv3/conv/Conv/WithoutBiases/fq_weights_1" type="Multiply" version="opset1">
			<data auto_broadcast="numpy" />
			<input>
				<port id="0" precision="FP32">
					<dim>24</dim>
					<dim>144</dim>
					<dim>1</dim>
					<dim>1</dim>
				</port>
				<port id="1" precision="FP32">
					<dim>24</dim>
					<dim>1</dim>
					<dim>1</dim>
					<dim>1</dim>
				</port>
			</input>
			<output>
				<port id="2" precision="FP32">
					<dim>24</dim>
					<dim>144</dim>
					<dim>1</dim>
					<dim>1</dim>
				</port>
			</output>
		</layer>
		<layer id="127" name="/backbone/stage2/unit2/conv3/conv/Conv/WithoutBiases" type="Convolution" version="opset1">
			<data strides="1, 1" dilations="1, 1" pads_begin="0, 0" pads_end="0, 0" auto_pad="explicit" />
			<input>
				<port id="0" precision="FP32">
					<dim>1</dim>
					<dim>144</dim>
					<dim>200</dim>
					<dim>248</dim>
				</port>
				<port id="1" precision="FP32">
					<dim>24</dim>
					<dim>144</dim>
					<dim>1</dim>
					<dim>1</dim>
				</port>
			</input>
			<output>
				<port id="2" precision="FP32">
					<dim>1</dim>
					<dim>24</dim>
					<dim>200</dim>
					<dim>248</dim>
				</port>
			</output>
		</layer>
		<layer id="128" name="Reshape_452" type="Const" version="opset1">
			<data element_type="f32" shape="1, 24, 1, 1" offset="22864" size="96" />
			<output>
				<port id="0" precision="FP32">
					<dim>1</dim>
					<dim>24</dim>
					<dim>1</dim>
					<dim>1</dim>
				</port>
			</output>
		</layer>
		<layer id="129" name="/backbone/stage2/unit2/conv3/conv/Conv" type="Add" version="opset1">
			<data auto_broadcast="numpy" />
			<input>
				<port id="0" precision="FP32">
					<dim>1</dim>
					<dim>24</dim>
					<dim>200</dim>
					<dim>248</dim>
				</port>
				<port id="1" precision="FP32">
					<dim>1</dim>
					<dim>24</dim>
					<dim>1</dim>
					<dim>1</dim>
				</port>
			</input>
			<output>
				<port id="2" precision="FP32" names="/backbone/stage2/unit2/conv3/conv/Conv_output_0">
					<dim>1</dim>
					<dim>24</dim>
					<dim>200</dim>
					<dim>248</dim>
				</port>
			</output>
		</layer>
		<layer id="130" name="/backbone/stage2/unit2/conv3/conv/Conv/fq_output_0/input_low" type="Const" version="opset1">
			<data element_type="f32" shape="" offset="22960" size="4" />
			<output>
				<port id="0" precision="FP32" />
			</output>
		</layer>
		<layer id="131" name="/backbone/stage2/unit2/conv3/conv/Conv/fq_output_0/input_high" type="Const" version="opset1">
			<data element_type="f32" shape="" offset="22964" size="4" />
			<output>
				<port id="0" precision="FP32" />
			</output>
		</layer>
		<layer id="132" name="/backbone/stage2/unit2/conv3/conv/Conv/fq_output_0/output_low" type="Const" version="opset1">
			<data element_type="f32" shape="" offset="22960" size="4" />
			<output>
				<port id="0" precision="FP32" />
			</output>
		</layer>
		<layer id="133" name="/backbone/stage2/unit2/conv3/conv/Conv/fq_output_0/output_high" type="Const" version="opset1">
			<data element_type="f32" shape="" offset="22964" size="4" />
			<output>
				<port id="0" precision="FP32" />
			</output>
		</layer>
		<layer id="134" name="/backbone/stage2/unit2/conv3/conv/Conv/fq_output_0" type="FakeQuantize" version="opset1">
			<data levels="256" auto_broadcast="numpy" />
			<input>
				<port id="0" precision="FP32">
					<dim>1</dim>
					<dim>24</dim>
					<dim>200</dim>
					<dim>248</dim>
				</port>
				<port id="1" precision="FP32" />
				<port id="2" precision="FP32" />
				<port id="3" precision="FP32" />
				<port id="4" precision="FP32" />
			</input>
			<output>
				<port id="5" precision="FP32">
					<dim>1</dim>
					<dim>24</dim>
					<dim>200</dim>
					<dim>248</dim>
				</port>
			</output>
		</layer>
		<layer id="135" name="/backbone/stage2/unit2/Add" type="Add" version="opset1">
			<data auto_broadcast="numpy" />
			<input>
				<port id="0" precision="FP32">
					<dim>1</dim>
					<dim>24</dim>
					<dim>200</dim>
					<dim>248</dim>
				</port>
				<port id="1" precision="FP32">
					<dim>1</dim>
					<dim>24</dim>
					<dim>200</dim>
					<dim>248</dim>
				</port>
			</input>
			<output>
				<port id="2" precision="FP32" names="/backbone/stage2/unit2/Add_output_0">
					<dim>1</dim>
					<dim>24</dim>
					<dim>200</dim>
					<dim>248</dim>
				</port>
			</output>
		</layer>
		<layer id="136" name="/backbone/stage2/unit2/Add/fq_output_0/input_low" type="Const" version="opset1">
			<data element_type="f32" shape="" offset="22968" size="4" />
			<output>
				<port id="0" precision="FP32" />
			</output>
		</layer>
		<layer id="137" name="/backbone/stage2/unit2/Add/fq_output_0/input_high" type="Const" version="opset1">
			<data element_type="f32" shape="" offset="22972" size="4" />
			<output>
				<port id="0" precision="FP32" />
			</output>
		</layer>
		<layer id="138" name="/backbone/stage2/unit2/Add/fq_output_0/output_low" type="Const" version="opset1">
			<data element_type="f32" shape="" offset="22968" size="4" />
			<output>
				<port id="0" precision="FP32" />
			</output>
		</layer>
		<layer id="139" name="/backbone/stage2/unit2/Add/fq_output_0/output_high" type="Const" version="opset1">
			<data element_type="f32" shape="" offset="22972" size="4" />
			<output>
				<port id="0" precision="FP32" />
			</output>
		</layer>
		<layer id="140" name="/backbone/stage2/unit2/Add/fq_output_0" type="FakeQuantize" version="opset1">
			<data levels="256" auto_broadcast="numpy" />
			<input>
				<port id="0" precision="FP32">
					<dim>1</dim>
					<dim>24</dim>
					<dim>200</dim>
					<dim>248</dim>
				</port>
				<port id="1" precision="FP32" />
				<port id="2" precision="FP32" />
				<port id="3" precision="FP32" />
				<port id="4" precision="FP32" />
			</input>
			<output>
				<port id="5" precision="FP32">
					<dim>1</dim>
					<dim>24</dim>
					<dim>200</dim>
					<dim>248</dim>
				</port>
			</output>
		</layer>
		<layer id="141" name="Constant_583427" type="Const" version="opset1">
			<data element_type="i8" shape="144, 24, 1, 1" offset="22976" size="3456" />
			<output>
				<port id="0" precision="I8">
					<dim>144</dim>
					<dim>24</dim>
					<dim>1</dim>
					<dim>1</dim>
				</port>
			</output>
		</layer>
		<layer id="142" name="Convert_583428" type="Convert" version="opset1">
			<data destination_type="f32" />
			<input>
				<port id="0" precision="I8">
					<dim>144</dim>
					<dim>24</dim>
					<dim>1</dim>
					<dim>1</dim>
				</port>
			</input>
			<output>
				<port id="1" precision="FP32">
					<dim>144</dim>
					<dim>24</dim>
					<dim>1</dim>
					<dim>1</dim>
				</port>
			</output>
		</layer>
		<layer id="143" name="Constant_583429" type="Const" version="opset1">
			<data element_type="f32" shape="144, 1, 1, 1" offset="26432" size="576" />
			<output>
				<port id="0" precision="FP32">
					<dim>144</dim>
					<dim>1</dim>
					<dim>1</dim>
					<dim>1</dim>
				</port>
			</output>
		</layer>
		<layer id="144" name="/backbone/stage3/unit1/conv1/conv/Conv/WithoutBiases/fq_weights_1" type="Multiply" version="opset1">
			<data auto_broadcast="numpy" />
			<input>
				<port id="0" precision="FP32">
					<dim>144</dim>
					<dim>24</dim>
					<dim>1</dim>
					<dim>1</dim>
				</port>
				<port id="1" precision="FP32">
					<dim>144</dim>
					<dim>1</dim>
					<dim>1</dim>
					<dim>1</dim>
				</port>
			</input>
			<output>
				<port id="2" precision="FP32">
					<dim>144</dim>
					<dim>24</dim>
					<dim>1</dim>
					<dim>1</dim>
				</port>
			</output>
		</layer>
		<layer id="145" name="/backbone/stage3/unit1/conv1/conv/Conv/WithoutBiases" type="Convolution" version="opset1">
			<data strides="1, 1" dilations="1, 1" pads_begin="0, 0" pads_end="0, 0" auto_pad="explicit" />
			<input>
				<port id="0" precision="FP32">
					<dim>1</dim>
					<dim>24</dim>
					<dim>200</dim>
					<dim>248</dim>
				</port>
				<port id="1" precision="FP32">
					<dim>144</dim>
					<dim>24</dim>
					<dim>1</dim>
					<dim>1</dim>
				</port>
			</input>
			<output>
				<port id="2" precision="FP32">
					<dim>1</dim>
					<dim>144</dim>
					<dim>200</dim>
					<dim>248</dim>
				</port>
			</output>
		</layer>
		<layer id="146" name="Reshape_466" type="Const" version="opset1">
			<data element_type="f32" shape="1, 144, 1, 1" offset="27008" size="576" />
			<output>
				<port id="0" precision="FP32">
					<dim>1</dim>
					<dim>144</dim>
					<dim>1</dim>
					<dim>1</dim>
				</port>
			</output>
		</layer>
		<layer id="147" name="/backbone/stage3/unit1/conv1/conv/Conv" type="Add" version="opset1">
			<data auto_broadcast="numpy" />
			<input>
				<port id="0" precision="FP32">
					<dim>1</dim>
					<dim>144</dim>
					<dim>200</dim>
					<dim>248</dim>
				</port>
				<port id="1" precision="FP32">
					<dim>1</dim>
					<dim>144</dim>
					<dim>1</dim>
					<dim>1</dim>
				</port>
			</input>
			<output>
				<port id="2" precision="FP32" names="/backbone/stage3/unit1/conv1/conv/Conv_output_0">
					<dim>1</dim>
					<dim>144</dim>
					<dim>200</dim>
					<dim>248</dim>
				</port>
			</output>
		</layer>
		<layer id="148" name="/backbone/stage3/unit1/conv1/activ/Clip" type="Clamp" version="opset1">
			<data min="0" max="6" />
			<input>
				<port id="0" precision="FP32">
					<dim>1</dim>
					<dim>144</dim>
					<dim>200</dim>
					<dim>248</dim>
				</port>
			</input>
			<output>
				<port id="1" precision="FP32" names="/backbone/stage3/unit1/conv1/activ/Clip_output_0">
					<dim>1</dim>
					<dim>144</dim>
					<dim>200</dim>
					<dim>248</dim>
				</port>
			</output>
		</layer>
		<layer id="149" name="/backbone/stage3/unit1/conv1/activ/Clip/fq_output_0/input_low" type="Const" version="opset1">
			<data element_type="f32" shape="1, 144, 1, 1" offset="15708" size="576" />
			<output>
				<port id="0" precision="FP32">
					<dim>1</dim>
					<dim>144</dim>
					<dim>1</dim>
					<dim>1</dim>
				</port>
			</output>
		</layer>
		<layer id="150" name="/backbone/stage3/unit1/conv1/activ/Clip/fq_output_0/input_high" type="Const" version="opset1">
			<data element_type="f32" shape="1, 144, 1, 1" offset="27584" size="576" />
			<output>
				<port id="0" precision="FP32">
					<dim>1</dim>
					<dim>144</dim>
					<dim>1</dim>
					<dim>1</dim>
				</port>
			</output>
		</layer>
		<layer id="151" name="/backbone/stage3/unit1/conv1/activ/Clip/fq_output_0/output_low" type="Const" version="opset1">
			<data element_type="f32" shape="1, 144, 1, 1" offset="15708" size="576" />
			<output>
				<port id="0" precision="FP32">
					<dim>1</dim>
					<dim>144</dim>
					<dim>1</dim>
					<dim>1</dim>
				</port>
			</output>
		</layer>
		<layer id="152" name="/backbone/stage3/unit1/conv1/activ/Clip/fq_output_0/output_high" type="Const" version="opset1">
			<data element_type="f32" shape="1, 144, 1, 1" offset="27584" size="576" />
			<output>
				<port id="0" precision="FP32">
					<dim>1</dim>
					<dim>144</dim>
					<dim>1</dim>
					<dim>1</dim>
				</port>
			</output>
		</layer>
		<layer id="153" name="/backbone/stage3/unit1/conv1/activ/Clip/fq_output_0" type="FakeQuantize" version="opset1">
			<data levels="256" auto_broadcast="numpy" />
			<input>
				<port id="0" precision="FP32">
					<dim>1</dim>
					<dim>144</dim>
					<dim>200</dim>
					<dim>248</dim>
				</port>
				<port id="1" precision="FP32">
					<dim>1</dim>
					<dim>144</dim>
					<dim>1</dim>
					<dim>1</dim>
				</port>
				<port id="2" precision="FP32">
					<dim>1</dim>
					<dim>144</dim>
					<dim>1</dim>
					<dim>1</dim>
				</port>
				<port id="3" precision="FP32">
					<dim>1</dim>
					<dim>144</dim>
					<dim>1</dim>
					<dim>1</dim>
				</port>
				<port id="4" precision="FP32">
					<dim>1</dim>
					<dim>144</dim>
					<dim>1</dim>
					<dim>1</dim>
				</port>
			</input>
			<output>
				<port id="5" precision="FP32">
					<dim>1</dim>
					<dim>144</dim>
					<dim>200</dim>
					<dim>248</dim>
				</port>
			</output>
		</layer>
		<layer id="154" name="Constant_583431" type="Const" version="opset1">
			<data element_type="i8" shape="144, 1, 1, 3, 3" offset="28160" size="1296" />
			<output>
				<port id="0" precision="I8">
					<dim>144</dim>
					<dim>1</dim>
					<dim>1</dim>
					<dim>3</dim>
					<dim>3</dim>
				</port>
			</output>
		</layer>
		<layer id="155" name="Convert_583432" type="Convert" version="opset1">
			<data destination_type="f32" />
			<input>
				<port id="0" precision="I8">
					<dim>144</dim>
					<dim>1</dim>
					<dim>1</dim>
					<dim>3</dim>
					<dim>3</dim>
				</port>
			</input>
			<output>
				<port id="1" precision="FP32">
					<dim>144</dim>
					<dim>1</dim>
					<dim>1</dim>
					<dim>3</dim>
					<dim>3</dim>
				</port>
			</output>
		</layer>
		<layer id="156" name="Constant_583433" type="Const" version="opset1">
			<data element_type="f32" shape="144, 1, 1, 1, 1" offset="29456" size="576" />
			<output>
				<port id="0" precision="FP32">
					<dim>144</dim>
					<dim>1</dim>
					<dim>1</dim>
					<dim>1</dim>
					<dim>1</dim>
				</port>
			</output>
		</layer>
		<layer id="157" name="/backbone/stage3/unit1/conv2/conv/Conv/WithoutBiases/fq_weights_1" type="Multiply" version="opset1">
			<data auto_broadcast="numpy" />
			<input>
				<port id="0" precision="FP32">
					<dim>144</dim>
					<dim>1</dim>
					<dim>1</dim>
					<dim>3</dim>
					<dim>3</dim>
				</port>
				<port id="1" precision="FP32">
					<dim>144</dim>
					<dim>1</dim>
					<dim>1</dim>
					<dim>1</dim>
					<dim>1</dim>
				</port>
			</input>
			<output>
				<port id="2" precision="FP32">
					<dim>144</dim>
					<dim>1</dim>
					<dim>1</dim>
					<dim>3</dim>
					<dim>3</dim>
				</port>
			</output>
		</layer>
		<layer id="158" name="/backbone/stage3/unit1/conv2/conv/Conv/WithoutBiases" type="GroupConvolution" version="opset1">
			<data strides="2, 2" pads_begin="1, 1" pads_end="1, 1" dilations="1, 1" auto_pad="explicit" />
			<input>
				<port id="0" precision="FP32">
					<dim>1</dim>
					<dim>144</dim>
					<dim>200</dim>
					<dim>248</dim>
				</port>
				<port id="1" precision="FP32">
					<dim>144</dim>
					<dim>1</dim>
					<dim>1</dim>
					<dim>3</dim>
					<dim>3</dim>
				</port>
			</input>
			<output>
				<port id="2" precision="FP32">
					<dim>1</dim>
					<dim>144</dim>
					<dim>100</dim>
					<dim>124</dim>
				</port>
			</output>
		</layer>
		<layer id="159" name="Reshape_529" type="Const" version="opset1">
			<data element_type="f32" shape="1, 144, 1, 1" offset="30032" size="576" />
			<output>
				<port id="0" precision="FP32">
					<dim>1</dim>
					<dim>144</dim>
					<dim>1</dim>
					<dim>1</dim>
				</port>
			</output>
		</layer>
		<layer id="160" name="/backbone/stage3/unit1/conv2/conv/Conv" type="Add" version="opset1">
			<data auto_broadcast="numpy" />
			<input>
				<port id="0" precision="FP32">
					<dim>1</dim>
					<dim>144</dim>
					<dim>100</dim>
					<dim>124</dim>
				</port>
				<port id="1" precision="FP32">
					<dim>1</dim>
					<dim>144</dim>
					<dim>1</dim>
					<dim>1</dim>
				</port>
			</input>
			<output>
				<port id="2" precision="FP32" names="/backbone/stage3/unit1/conv2/conv/Conv_output_0">
					<dim>1</dim>
					<dim>144</dim>
					<dim>100</dim>
					<dim>124</dim>
				</port>
			</output>
		</layer>
		<layer id="161" name="/backbone/stage3/unit1/conv2/activ/Clip" type="Clamp" version="opset1">
			<data min="0" max="6" />
			<input>
				<port id="0" precision="FP32">
					<dim>1</dim>
					<dim>144</dim>
					<dim>100</dim>
					<dim>124</dim>
				</port>
			</input>
			<output>
				<port id="1" precision="FP32" names="/backbone/stage3/unit1/conv2/activ/Clip_output_0">
					<dim>1</dim>
					<dim>144</dim>
					<dim>100</dim>
					<dim>124</dim>
				</port>
			</output>
		</layer>
		<layer id="162" name="/backbone/stage3/unit1/conv2/activ/Clip/fq_output_0/input_low" type="Const" version="opset1">
			<data element_type="f32" shape="" offset="24" size="4" />
			<output>
				<port id="0" precision="FP32" />
			</output>
		</layer>
		<layer id="163" name="/backbone/stage3/unit1/conv2/activ/Clip/fq_output_0/input_high" type="Const" version="opset1">
			<data element_type="f32" shape="" offset="30608" size="4" />
			<output>
				<port id="0" precision="FP32" />
			</output>
		</layer>
		<layer id="164" name="/backbone/stage3/unit1/conv2/activ/Clip/fq_output_0/output_low" type="Const" version="opset1">
			<data element_type="f32" shape="" offset="24" size="4" />
			<output>
				<port id="0" precision="FP32" />
			</output>
		</layer>
		<layer id="165" name="/backbone/stage3/unit1/conv2/activ/Clip/fq_output_0/output_high" type="Const" version="opset1">
			<data element_type="f32" shape="" offset="30608" size="4" />
			<output>
				<port id="0" precision="FP32" />
			</output>
		</layer>
		<layer id="166" name="/backbone/stage3/unit1/conv2/activ/Clip/fq_output_0" type="FakeQuantize" version="opset1">
			<data levels="256" auto_broadcast="numpy" />
			<input>
				<port id="0" precision="FP32">
					<dim>1</dim>
					<dim>144</dim>
					<dim>100</dim>
					<dim>124</dim>
				</port>
				<port id="1" precision="FP32" />
				<port id="2" precision="FP32" />
				<port id="3" precision="FP32" />
				<port id="4" precision="FP32" />
			</input>
			<output>
				<port id="5" precision="FP32">
					<dim>1</dim>
					<dim>144</dim>
					<dim>100</dim>
					<dim>124</dim>
				</port>
			</output>
		</layer>
		<layer id="167" name="Constant_583435" type="Const" version="opset1">
			<data element_type="i8" shape="32, 144, 1, 1" offset="30612" size="4608" />
			<output>
				<port id="0" precision="I8">
					<dim>32</dim>
					<dim>144</dim>
					<dim>1</dim>
					<dim>1</dim>
				</port>
			</output>
		</layer>
		<layer id="168" name="Convert_583436" type="Convert" version="opset1">
			<data destination_type="f32" />
			<input>
				<port id="0" precision="I8">
					<dim>32</dim>
					<dim>144</dim>
					<dim>1</dim>
					<dim>1</dim>
				</port>
			</input>
			<output>
				<port id="1" precision="FP32">
					<dim>32</dim>
					<dim>144</dim>
					<dim>1</dim>
					<dim>1</dim>
				</port>
			</output>
		</layer>
		<layer id="169" name="Constant_583437" type="Const" version="opset1">
			<data element_type="f32" shape="32, 1, 1, 1" offset="35220" size="128" />
			<output>
				<port id="0" precision="FP32">
					<dim>32</dim>
					<dim>1</dim>
					<dim>1</dim>
					<dim>1</dim>
				</port>
			</output>
		</layer>
		<layer id="170" name="/backbone/stage3/unit1/conv3/conv/Conv/WithoutBiases/fq_weights_1" type="Multiply" version="opset1">
			<data auto_broadcast="numpy" />
			<input>
				<port id="0" precision="FP32">
					<dim>32</dim>
					<dim>144</dim>
					<dim>1</dim>
					<dim>1</dim>
				</port>
				<port id="1" precision="FP32">
					<dim>32</dim>
					<dim>1</dim>
					<dim>1</dim>
					<dim>1</dim>
				</port>
			</input>
			<output>
				<port id="2" precision="FP32">
					<dim>32</dim>
					<dim>144</dim>
					<dim>1</dim>
					<dim>1</dim>
				</port>
			</output>
		</layer>
		<layer id="171" name="/backbone/stage3/unit1/conv3/conv/Conv/WithoutBiases" type="Convolution" version="opset1">
			<data strides="1, 1" dilations="1, 1" pads_begin="0, 0" pads_end="0, 0" auto_pad="explicit" />
			<input>
				<port id="0" precision="FP32">
					<dim>1</dim>
					<dim>144</dim>
					<dim>100</dim>
					<dim>124</dim>
				</port>
				<port id="1" precision="FP32">
					<dim>32</dim>
					<dim>144</dim>
					<dim>1</dim>
					<dim>1</dim>
				</port>
			</input>
			<output>
				<port id="2" precision="FP32">
					<dim>1</dim>
					<dim>32</dim>
					<dim>100</dim>
					<dim>124</dim>
				</port>
			</output>
		</layer>
		<layer id="172" name="Reshape_546" type="Const" version="opset1">
			<data element_type="f32" shape="1, 32, 1, 1" offset="35348" size="128" />
			<output>
				<port id="0" precision="FP32">
					<dim>1</dim>
					<dim>32</dim>
					<dim>1</dim>
					<dim>1</dim>
				</port>
			</output>
		</layer>
		<layer id="173" name="/backbone/stage3/unit1/conv3/conv/Conv" type="Add" version="opset1">
			<data auto_broadcast="numpy" />
			<input>
				<port id="0" precision="FP32">
					<dim>1</dim>
					<dim>32</dim>
					<dim>100</dim>
					<dim>124</dim>
				</port>
				<port id="1" precision="FP32">
					<dim>1</dim>
					<dim>32</dim>
					<dim>1</dim>
					<dim>1</dim>
				</port>
			</input>
			<output>
				<port id="2" precision="FP32" names="/backbone/stage3/unit1/conv3/conv/Conv_output_0">
					<dim>1</dim>
					<dim>32</dim>
					<dim>100</dim>
					<dim>124</dim>
				</port>
			</output>
		</layer>
		<layer id="174" name="/backbone/stage3/unit1/conv3/conv/Conv/fq_output_0/input_low" type="Const" version="opset1">
			<data element_type="f32" shape="" offset="35476" size="4" />
			<output>
				<port id="0" precision="FP32" />
			</output>
		</layer>
		<layer id="175" name="/backbone/stage3/unit1/conv3/conv/Conv/fq_output_0/input_high" type="Const" version="opset1">
			<data element_type="f32" shape="" offset="35480" size="4" />
			<output>
				<port id="0" precision="FP32" />
			</output>
		</layer>
		<layer id="176" name="/backbone/stage3/unit1/conv3/conv/Conv/fq_output_0/output_low" type="Const" version="opset1">
			<data element_type="f32" shape="" offset="35476" size="4" />
			<output>
				<port id="0" precision="FP32" />
			</output>
		</layer>
		<layer id="177" name="/backbone/stage3/unit1/conv3/conv/Conv/fq_output_0/output_high" type="Const" version="opset1">
			<data element_type="f32" shape="" offset="35480" size="4" />
			<output>
				<port id="0" precision="FP32" />
			</output>
		</layer>
		<layer id="178" name="/backbone/stage3/unit1/conv3/conv/Conv/fq_output_0" type="FakeQuantize" version="opset1">
			<data levels="256" auto_broadcast="numpy" />
			<input>
				<port id="0" precision="FP32">
					<dim>1</dim>
					<dim>32</dim>
					<dim>100</dim>
					<dim>124</dim>
				</port>
				<port id="1" precision="FP32" />
				<port id="2" precision="FP32" />
				<port id="3" precision="FP32" />
				<port id="4" precision="FP32" />
			</input>
			<output>
				<port id="5" precision="FP32">
					<dim>1</dim>
					<dim>32</dim>
					<dim>100</dim>
					<dim>124</dim>
				</port>
			</output>
		</layer>
		<layer id="179" name="Constant_583439" type="Const" version="opset1">
			<data element_type="i8" shape="192, 32, 1, 1" offset="35484" size="6144" />
			<output>
				<port id="0" precision="I8">
					<dim>192</dim>
					<dim>32</dim>
					<dim>1</dim>
					<dim>1</dim>
				</port>
			</output>
		</layer>
		<layer id="180" name="Convert_583440" type="Convert" version="opset1">
			<data destination_type="f32" />
			<input>
				<port id="0" precision="I8">
					<dim>192</dim>
					<dim>32</dim>
					<dim>1</dim>
					<dim>1</dim>
				</port>
			</input>
			<output>
				<port id="1" precision="FP32">
					<dim>192</dim>
					<dim>32</dim>
					<dim>1</dim>
					<dim>1</dim>
				</port>
			</output>
		</layer>
		<layer id="181" name="Constant_583441" type="Const" version="opset1">
			<data element_type="f32" shape="192, 1, 1, 1" offset="41628" size="768" />
			<output>
				<port id="0" precision="FP32">
					<dim>192</dim>
					<dim>1</dim>
					<dim>1</dim>
					<dim>1</dim>
				</port>
			</output>
		</layer>
		<layer id="182" name="/backbone/stage3/unit2/conv1/conv/Conv/WithoutBiases/fq_weights_1" type="Multiply" version="opset1">
			<data auto_broadcast="numpy" />
			<input>
				<port id="0" precision="FP32">
					<dim>192</dim>
					<dim>32</dim>
					<dim>1</dim>
					<dim>1</dim>
				</port>
				<port id="1" precision="FP32">
					<dim>192</dim>
					<dim>1</dim>
					<dim>1</dim>
					<dim>1</dim>
				</port>
			</input>
			<output>
				<port id="2" precision="FP32">
					<dim>192</dim>
					<dim>32</dim>
					<dim>1</dim>
					<dim>1</dim>
				</port>
			</output>
		</layer>
		<layer id="183" name="/backbone/stage3/unit2/conv1/conv/Conv/WithoutBiases" type="Convolution" version="opset1">
			<data strides="1, 1" dilations="1, 1" pads_begin="0, 0" pads_end="0, 0" auto_pad="explicit" />
			<input>
				<port id="0" precision="FP32">
					<dim>1</dim>
					<dim>32</dim>
					<dim>100</dim>
					<dim>124</dim>
				</port>
				<port id="1" precision="FP32">
					<dim>192</dim>
					<dim>32</dim>
					<dim>1</dim>
					<dim>1</dim>
				</port>
			</input>
			<output>
				<port id="2" precision="FP32">
					<dim>1</dim>
					<dim>192</dim>
					<dim>100</dim>
					<dim>124</dim>
				</port>
			</output>
		</layer>
		<layer id="184" name="Reshape_559" type="Const" version="opset1">
			<data element_type="f32" shape="1, 192, 1, 1" offset="42396" size="768" />
			<output>
				<port id="0" precision="FP32">
					<dim>1</dim>
					<dim>192</dim>
					<dim>1</dim>
					<dim>1</dim>
				</port>
			</output>
		</layer>
		<layer id="185" name="/backbone/stage3/unit2/conv1/conv/Conv" type="Add" version="opset1">
			<data auto_broadcast="numpy" />
			<input>
				<port id="0" precision="FP32">
					<dim>1</dim>
					<dim>192</dim>
					<dim>100</dim>
					<dim>124</dim>
				</port>
				<port id="1" precision="FP32">
					<dim>1</dim>
					<dim>192</dim>
					<dim>1</dim>
					<dim>1</dim>
				</port>
			</input>
			<output>
				<port id="2" precision="FP32" names="/backbone/stage3/unit2/conv1/conv/Conv_output_0">
					<dim>1</dim>
					<dim>192</dim>
					<dim>100</dim>
					<dim>124</dim>
				</port>
			</output>
		</layer>
		<layer id="186" name="/backbone/stage3/unit2/conv1/activ/Clip" type="Clamp" version="opset1">
			<data min="0" max="6" />
			<input>
				<port id="0" precision="FP32">
					<dim>1</dim>
					<dim>192</dim>
					<dim>100</dim>
					<dim>124</dim>
				</port>
			</input>
			<output>
				<port id="1" precision="FP32" names="/backbone/stage3/unit2/conv1/activ/Clip_output_0">
					<dim>1</dim>
					<dim>192</dim>
					<dim>100</dim>
					<dim>124</dim>
				</port>
			</output>
		</layer>
		<layer id="187" name="/backbone/stage3/unit2/conv1/activ/Clip/fq_output_0/input_low" type="Const" version="opset1">
			<data element_type="f32" shape="1, 192, 1, 1" offset="43164" size="768" />
			<output>
				<port id="0" precision="FP32">
					<dim>1</dim>
					<dim>192</dim>
					<dim>1</dim>
					<dim>1</dim>
				</port>
			</output>
		</layer>
		<layer id="188" name="/backbone/stage3/unit2/conv1/activ/Clip/fq_output_0/input_high" type="Const" version="opset1">
			<data element_type="f32" shape="1, 192, 1, 1" offset="43932" size="768" />
			<output>
				<port id="0" precision="FP32">
					<dim>1</dim>
					<dim>192</dim>
					<dim>1</dim>
					<dim>1</dim>
				</port>
			</output>
		</layer>
		<layer id="189" name="/backbone/stage3/unit2/conv1/activ/Clip/fq_output_0/output_low" type="Const" version="opset1">
			<data element_type="f32" shape="1, 192, 1, 1" offset="43164" size="768" />
			<output>
				<port id="0" precision="FP32">
					<dim>1</dim>
					<dim>192</dim>
					<dim>1</dim>
					<dim>1</dim>
				</port>
			</output>
		</layer>
		<layer id="190" name="/backbone/stage3/unit2/conv1/activ/Clip/fq_output_0/output_high" type="Const" version="opset1">
			<data element_type="f32" shape="1, 192, 1, 1" offset="43932" size="768" />
			<output>
				<port id="0" precision="FP32">
					<dim>1</dim>
					<dim>192</dim>
					<dim>1</dim>
					<dim>1</dim>
				</port>
			</output>
		</layer>
		<layer id="191" name="/backbone/stage3/unit2/conv1/activ/Clip/fq_output_0" type="FakeQuantize" version="opset1">
			<data levels="256" auto_broadcast="numpy" />
			<input>
				<port id="0" precision="FP32">
					<dim>1</dim>
					<dim>192</dim>
					<dim>100</dim>
					<dim>124</dim>
				</port>
				<port id="1" precision="FP32">
					<dim>1</dim>
					<dim>192</dim>
					<dim>1</dim>
					<dim>1</dim>
				</port>
				<port id="2" precision="FP32">
					<dim>1</dim>
					<dim>192</dim>
					<dim>1</dim>
					<dim>1</dim>
				</port>
				<port id="3" precision="FP32">
					<dim>1</dim>
					<dim>192</dim>
					<dim>1</dim>
					<dim>1</dim>
				</port>
				<port id="4" precision="FP32">
					<dim>1</dim>
					<dim>192</dim>
					<dim>1</dim>
					<dim>1</dim>
				</port>
			</input>
			<output>
				<port id="5" precision="FP32">
					<dim>1</dim>
					<dim>192</dim>
					<dim>100</dim>
					<dim>124</dim>
				</port>
			</output>
		</layer>
		<layer id="192" name="Constant_583443" type="Const" version="opset1">
			<data element_type="i8" shape="192, 1, 1, 3, 3" offset="44700" size="1728" />
			<output>
				<port id="0" precision="I8">
					<dim>192</dim>
					<dim>1</dim>
					<dim>1</dim>
					<dim>3</dim>
					<dim>3</dim>
				</port>
			</output>
		</layer>
		<layer id="193" name="Convert_583444" type="Convert" version="opset1">
			<data destination_type="f32" />
			<input>
				<port id="0" precision="I8">
					<dim>192</dim>
					<dim>1</dim>
					<dim>1</dim>
					<dim>3</dim>
					<dim>3</dim>
				</port>
			</input>
			<output>
				<port id="1" precision="FP32">
					<dim>192</dim>
					<dim>1</dim>
					<dim>1</dim>
					<dim>3</dim>
					<dim>3</dim>
				</port>
			</output>
		</layer>
		<layer id="194" name="Constant_583445" type="Const" version="opset1">
			<data element_type="f32" shape="192, 1, 1, 1, 1" offset="46428" size="768" />
			<output>
				<port id="0" precision="FP32">
					<dim>192</dim>
					<dim>1</dim>
					<dim>1</dim>
					<dim>1</dim>
					<dim>1</dim>
				</port>
			</output>
		</layer>
		<layer id="195" name="/backbone/stage3/unit2/conv2/conv/Conv/WithoutBiases/fq_weights_1" type="Multiply" version="opset1">
			<data auto_broadcast="numpy" />
			<input>
				<port id="0" precision="FP32">
					<dim>192</dim>
					<dim>1</dim>
					<dim>1</dim>
					<dim>3</dim>
					<dim>3</dim>
				</port>
				<port id="1" precision="FP32">
					<dim>192</dim>
					<dim>1</dim>
					<dim>1</dim>
					<dim>1</dim>
					<dim>1</dim>
				</port>
			</input>
			<output>
				<port id="2" precision="FP32">
					<dim>192</dim>
					<dim>1</dim>
					<dim>1</dim>
					<dim>3</dim>
					<dim>3</dim>
				</port>
			</output>
		</layer>
		<layer id="196" name="/backbone/stage3/unit2/conv2/conv/Conv/WithoutBiases" type="GroupConvolution" version="opset1">
			<data strides="1, 1" pads_begin="1, 1" pads_end="1, 1" dilations="1, 1" auto_pad="explicit" />
			<input>
				<port id="0" precision="FP32">
					<dim>1</dim>
					<dim>192</dim>
					<dim>100</dim>
					<dim>124</dim>
				</port>
				<port id="1" precision="FP32">
					<dim>192</dim>
					<dim>1</dim>
					<dim>1</dim>
					<dim>3</dim>
					<dim>3</dim>
				</port>
			</input>
			<output>
				<port id="2" precision="FP32">
					<dim>1</dim>
					<dim>192</dim>
					<dim>100</dim>
					<dim>124</dim>
				</port>
			</output>
		</layer>
		<layer id="197" name="Reshape_622" type="Const" version="opset1">
			<data element_type="f32" shape="1, 192, 1, 1" offset="47196" size="768" />
			<output>
				<port id="0" precision="FP32">
					<dim>1</dim>
					<dim>192</dim>
					<dim>1</dim>
					<dim>1</dim>
				</port>
			</output>
		</layer>
		<layer id="198" name="/backbone/stage3/unit2/conv2/conv/Conv" type="Add" version="opset1">
			<data auto_broadcast="numpy" />
			<input>
				<port id="0" precision="FP32">
					<dim>1</dim>
					<dim>192</dim>
					<dim>100</dim>
					<dim>124</dim>
				</port>
				<port id="1" precision="FP32">
					<dim>1</dim>
					<dim>192</dim>
					<dim>1</dim>
					<dim>1</dim>
				</port>
			</input>
			<output>
				<port id="2" precision="FP32" names="/backbone/stage3/unit2/conv2/conv/Conv_output_0">
					<dim>1</dim>
					<dim>192</dim>
					<dim>100</dim>
					<dim>124</dim>
				</port>
			</output>
		</layer>
		<layer id="199" name="/backbone/stage3/unit2/conv2/activ/Clip" type="Clamp" version="opset1">
			<data min="0" max="6" />
			<input>
				<port id="0" precision="FP32">
					<dim>1</dim>
					<dim>192</dim>
					<dim>100</dim>
					<dim>124</dim>
				</port>
			</input>
			<output>
				<port id="1" precision="FP32" names="/backbone/stage3/unit2/conv2/activ/Clip_output_0">
					<dim>1</dim>
					<dim>192</dim>
					<dim>100</dim>
					<dim>124</dim>
				</port>
			</output>
		</layer>
		<layer id="200" name="/backbone/stage3/unit2/conv2/activ/Clip/fq_output_0/input_low" type="Const" version="opset1">
			<data element_type="f32" shape="" offset="24" size="4" />
			<output>
				<port id="0" precision="FP32" />
			</output>
		</layer>
		<layer id="201" name="/backbone/stage3/unit2/conv2/activ/Clip/fq_output_0/input_high" type="Const" version="opset1">
			<data element_type="f32" shape="" offset="47964" size="4" />
			<output>
				<port id="0" precision="FP32" />
			</output>
		</layer>
		<layer id="202" name="/backbone/stage3/unit2/conv2/activ/Clip/fq_output_0/output_low" type="Const" version="opset1">
			<data element_type="f32" shape="" offset="24" size="4" />
			<output>
				<port id="0" precision="FP32" />
			</output>
		</layer>
		<layer id="203" name="/backbone/stage3/unit2/conv2/activ/Clip/fq_output_0/output_high" type="Const" version="opset1">
			<data element_type="f32" shape="" offset="47964" size="4" />
			<output>
				<port id="0" precision="FP32" />
			</output>
		</layer>
		<layer id="204" name="/backbone/stage3/unit2/conv2/activ/Clip/fq_output_0" type="FakeQuantize" version="opset1">
			<data levels="256" auto_broadcast="numpy" />
			<input>
				<port id="0" precision="FP32">
					<dim>1</dim>
					<dim>192</dim>
					<dim>100</dim>
					<dim>124</dim>
				</port>
				<port id="1" precision="FP32" />
				<port id="2" precision="FP32" />
				<port id="3" precision="FP32" />
				<port id="4" precision="FP32" />
			</input>
			<output>
				<port id="5" precision="FP32">
					<dim>1</dim>
					<dim>192</dim>
					<dim>100</dim>
					<dim>124</dim>
				</port>
			</output>
		</layer>
		<layer id="205" name="Constant_583447" type="Const" version="opset1">
			<data element_type="i8" shape="32, 192, 1, 1" offset="47968" size="6144" />
			<output>
				<port id="0" precision="I8">
					<dim>32</dim>
					<dim>192</dim>
					<dim>1</dim>
					<dim>1</dim>
				</port>
			</output>
		</layer>
		<layer id="206" name="Convert_583448" type="Convert" version="opset1">
			<data destination_type="f32" />
			<input>
				<port id="0" precision="I8">
					<dim>32</dim>
					<dim>192</dim>
					<dim>1</dim>
					<dim>1</dim>
				</port>
			</input>
			<output>
				<port id="1" precision="FP32">
					<dim>32</dim>
					<dim>192</dim>
					<dim>1</dim>
					<dim>1</dim>
				</port>
			</output>
		</layer>
		<layer id="207" name="Constant_583449" type="Const" version="opset1">
			<data element_type="f32" shape="32, 1, 1, 1" offset="54112" size="128" />
			<output>
				<port id="0" precision="FP32">
					<dim>32</dim>
					<dim>1</dim>
					<dim>1</dim>
					<dim>1</dim>
				</port>
			</output>
		</layer>
		<layer id="208" name="/backbone/stage3/unit2/conv3/conv/Conv/WithoutBiases/fq_weights_1" type="Multiply" version="opset1">
			<data auto_broadcast="numpy" />
			<input>
				<port id="0" precision="FP32">
					<dim>32</dim>
					<dim>192</dim>
					<dim>1</dim>
					<dim>1</dim>
				</port>
				<port id="1" precision="FP32">
					<dim>32</dim>
					<dim>1</dim>
					<dim>1</dim>
					<dim>1</dim>
				</port>
			</input>
			<output>
				<port id="2" precision="FP32">
					<dim>32</dim>
					<dim>192</dim>
					<dim>1</dim>
					<dim>1</dim>
				</port>
			</output>
		</layer>
		<layer id="209" name="/backbone/stage3/unit2/conv3/conv/Conv/WithoutBiases" type="Convolution" version="opset1">
			<data strides="1, 1" dilations="1, 1" pads_begin="0, 0" pads_end="0, 0" auto_pad="explicit" />
			<input>
				<port id="0" precision="FP32">
					<dim>1</dim>
					<dim>192</dim>
					<dim>100</dim>
					<dim>124</dim>
				</port>
				<port id="1" precision="FP32">
					<dim>32</dim>
					<dim>192</dim>
					<dim>1</dim>
					<dim>1</dim>
				</port>
			</input>
			<output>
				<port id="2" precision="FP32">
					<dim>1</dim>
					<dim>32</dim>
					<dim>100</dim>
					<dim>124</dim>
				</port>
			</output>
		</layer>
		<layer id="210" name="Reshape_639" type="Const" version="opset1">
			<data element_type="f32" shape="1, 32, 1, 1" offset="54240" size="128" />
			<output>
				<port id="0" precision="FP32">
					<dim>1</dim>
					<dim>32</dim>
					<dim>1</dim>
					<dim>1</dim>
				</port>
			</output>
		</layer>
		<layer id="211" name="/backbone/stage3/unit2/conv3/conv/Conv" type="Add" version="opset1">
			<data auto_broadcast="numpy" />
			<input>
				<port id="0" precision="FP32">
					<dim>1</dim>
					<dim>32</dim>
					<dim>100</dim>
					<dim>124</dim>
				</port>
				<port id="1" precision="FP32">
					<dim>1</dim>
					<dim>32</dim>
					<dim>1</dim>
					<dim>1</dim>
				</port>
			</input>
			<output>
				<port id="2" precision="FP32" names="/backbone/stage3/unit2/conv3/conv/Conv_output_0">
					<dim>1</dim>
					<dim>32</dim>
					<dim>100</dim>
					<dim>124</dim>
				</port>
			</output>
		</layer>
		<layer id="212" name="/backbone/stage3/unit2/conv3/conv/Conv/fq_output_0/input_low" type="Const" version="opset1">
			<data element_type="f32" shape="" offset="54368" size="4" />
			<output>
				<port id="0" precision="FP32" />
			</output>
		</layer>
		<layer id="213" name="/backbone/stage3/unit2/conv3/conv/Conv/fq_output_0/input_high" type="Const" version="opset1">
			<data element_type="f32" shape="" offset="54372" size="4" />
			<output>
				<port id="0" precision="FP32" />
			</output>
		</layer>
		<layer id="214" name="/backbone/stage3/unit2/conv3/conv/Conv/fq_output_0/output_low" type="Const" version="opset1">
			<data element_type="f32" shape="" offset="54368" size="4" />
			<output>
				<port id="0" precision="FP32" />
			</output>
		</layer>
		<layer id="215" name="/backbone/stage3/unit2/conv3/conv/Conv/fq_output_0/output_high" type="Const" version="opset1">
			<data element_type="f32" shape="" offset="54372" size="4" />
			<output>
				<port id="0" precision="FP32" />
			</output>
		</layer>
		<layer id="216" name="/backbone/stage3/unit2/conv3/conv/Conv/fq_output_0" type="FakeQuantize" version="opset1">
			<data levels="256" auto_broadcast="numpy" />
			<input>
				<port id="0" precision="FP32">
					<dim>1</dim>
					<dim>32</dim>
					<dim>100</dim>
					<dim>124</dim>
				</port>
				<port id="1" precision="FP32" />
				<port id="2" precision="FP32" />
				<port id="3" precision="FP32" />
				<port id="4" precision="FP32" />
			</input>
			<output>
				<port id="5" precision="FP32">
					<dim>1</dim>
					<dim>32</dim>
					<dim>100</dim>
					<dim>124</dim>
				</port>
			</output>
		</layer>
		<layer id="217" name="/backbone/stage3/unit2/Add" type="Add" version="opset1">
			<data auto_broadcast="numpy" />
			<input>
				<port id="0" precision="FP32">
					<dim>1</dim>
					<dim>32</dim>
					<dim>100</dim>
					<dim>124</dim>
				</port>
				<port id="1" precision="FP32">
					<dim>1</dim>
					<dim>32</dim>
					<dim>100</dim>
					<dim>124</dim>
				</port>
			</input>
			<output>
				<port id="2" precision="FP32" names="/backbone/stage3/unit2/Add_output_0">
					<dim>1</dim>
					<dim>32</dim>
					<dim>100</dim>
					<dim>124</dim>
				</port>
			</output>
		</layer>
		<layer id="218" name="/backbone/stage3/unit2/Add/fq_output_0/input_low" type="Const" version="opset1">
			<data element_type="f32" shape="" offset="54376" size="4" />
			<output>
				<port id="0" precision="FP32" />
			</output>
		</layer>
		<layer id="219" name="/backbone/stage3/unit2/Add/fq_output_0/input_high" type="Const" version="opset1">
			<data element_type="f32" shape="" offset="54380" size="4" />
			<output>
				<port id="0" precision="FP32" />
			</output>
		</layer>
		<layer id="220" name="/backbone/stage3/unit2/Add/fq_output_0/output_low" type="Const" version="opset1">
			<data element_type="f32" shape="" offset="54376" size="4" />
			<output>
				<port id="0" precision="FP32" />
			</output>
		</layer>
		<layer id="221" name="/backbone/stage3/unit2/Add/fq_output_0/output_high" type="Const" version="opset1">
			<data element_type="f32" shape="" offset="54380" size="4" />
			<output>
				<port id="0" precision="FP32" />
			</output>
		</layer>
		<layer id="222" name="/backbone/stage3/unit2/Add/fq_output_0" type="FakeQuantize" version="opset1">
			<data levels="256" auto_broadcast="numpy" />
			<input>
				<port id="0" precision="FP32">
					<dim>1</dim>
					<dim>32</dim>
					<dim>100</dim>
					<dim>124</dim>
				</port>
				<port id="1" precision="FP32" />
				<port id="2" precision="FP32" />
				<port id="3" precision="FP32" />
				<port id="4" precision="FP32" />
			</input>
			<output>
				<port id="5" precision="FP32">
					<dim>1</dim>
					<dim>32</dim>
					<dim>100</dim>
					<dim>124</dim>
				</port>
			</output>
		</layer>
		<layer id="223" name="Constant_583451" type="Const" version="opset1">
			<data element_type="i8" shape="192, 32, 1, 1" offset="54384" size="6144" />
			<output>
				<port id="0" precision="I8">
					<dim>192</dim>
					<dim>32</dim>
					<dim>1</dim>
					<dim>1</dim>
				</port>
			</output>
		</layer>
		<layer id="224" name="Convert_583452" type="Convert" version="opset1">
			<data destination_type="f32" />
			<input>
				<port id="0" precision="I8">
					<dim>192</dim>
					<dim>32</dim>
					<dim>1</dim>
					<dim>1</dim>
				</port>
			</input>
			<output>
				<port id="1" precision="FP32">
					<dim>192</dim>
					<dim>32</dim>
					<dim>1</dim>
					<dim>1</dim>
				</port>
			</output>
		</layer>
		<layer id="225" name="Constant_583453" type="Const" version="opset1">
			<data element_type="f32" shape="192, 1, 1, 1" offset="60528" size="768" />
			<output>
				<port id="0" precision="FP32">
					<dim>192</dim>
					<dim>1</dim>
					<dim>1</dim>
					<dim>1</dim>
				</port>
			</output>
		</layer>
		<layer id="226" name="/backbone/stage3/unit3/conv1/conv/Conv/WithoutBiases/fq_weights_1" type="Multiply" version="opset1">
			<data auto_broadcast="numpy" />
			<input>
				<port id="0" precision="FP32">
					<dim>192</dim>
					<dim>32</dim>
					<dim>1</dim>
					<dim>1</dim>
				</port>
				<port id="1" precision="FP32">
					<dim>192</dim>
					<dim>1</dim>
					<dim>1</dim>
					<dim>1</dim>
				</port>
			</input>
			<output>
				<port id="2" precision="FP32">
					<dim>192</dim>
					<dim>32</dim>
					<dim>1</dim>
					<dim>1</dim>
				</port>
			</output>
		</layer>
		<layer id="227" name="/backbone/stage3/unit3/conv1/conv/Conv/WithoutBiases" type="Convolution" version="opset1">
			<data strides="1, 1" dilations="1, 1" pads_begin="0, 0" pads_end="0, 0" auto_pad="explicit" />
			<input>
				<port id="0" precision="FP32">
					<dim>1</dim>
					<dim>32</dim>
					<dim>100</dim>
					<dim>124</dim>
				</port>
				<port id="1" precision="FP32">
					<dim>192</dim>
					<dim>32</dim>
					<dim>1</dim>
					<dim>1</dim>
				</port>
			</input>
			<output>
				<port id="2" precision="FP32">
					<dim>1</dim>
					<dim>192</dim>
					<dim>100</dim>
					<dim>124</dim>
				</port>
			</output>
		</layer>
		<layer id="228" name="Reshape_653" type="Const" version="opset1">
			<data element_type="f32" shape="1, 192, 1, 1" offset="61296" size="768" />
			<output>
				<port id="0" precision="FP32">
					<dim>1</dim>
					<dim>192</dim>
					<dim>1</dim>
					<dim>1</dim>
				</port>
			</output>
		</layer>
		<layer id="229" name="/backbone/stage3/unit3/conv1/conv/Conv" type="Add" version="opset1">
			<data auto_broadcast="numpy" />
			<input>
				<port id="0" precision="FP32">
					<dim>1</dim>
					<dim>192</dim>
					<dim>100</dim>
					<dim>124</dim>
				</port>
				<port id="1" precision="FP32">
					<dim>1</dim>
					<dim>192</dim>
					<dim>1</dim>
					<dim>1</dim>
				</port>
			</input>
			<output>
				<port id="2" precision="FP32" names="/backbone/stage3/unit3/conv1/conv/Conv_output_0">
					<dim>1</dim>
					<dim>192</dim>
					<dim>100</dim>
					<dim>124</dim>
				</port>
			</output>
		</layer>
		<layer id="230" name="/backbone/stage3/unit3/conv1/activ/Clip" type="Clamp" version="opset1">
			<data min="0" max="6" />
			<input>
				<port id="0" precision="FP32">
					<dim>1</dim>
					<dim>192</dim>
					<dim>100</dim>
					<dim>124</dim>
				</port>
			</input>
			<output>
				<port id="1" precision="FP32" names="/backbone/stage3/unit3/conv1/activ/Clip_output_0">
					<dim>1</dim>
					<dim>192</dim>
					<dim>100</dim>
					<dim>124</dim>
				</port>
			</output>
		</layer>
		<layer id="231" name="/backbone/stage3/unit3/conv1/activ/Clip/fq_output_0/input_low" type="Const" version="opset1">
			<data element_type="f32" shape="1, 192, 1, 1" offset="43164" size="768" />
			<output>
				<port id="0" precision="FP32">
					<dim>1</dim>
					<dim>192</dim>
					<dim>1</dim>
					<dim>1</dim>
				</port>
			</output>
		</layer>
		<layer id="232" name="/backbone/stage3/unit3/conv1/activ/Clip/fq_output_0/input_high" type="Const" version="opset1">
			<data element_type="f32" shape="1, 192, 1, 1" offset="62064" size="768" />
			<output>
				<port id="0" precision="FP32">
					<dim>1</dim>
					<dim>192</dim>
					<dim>1</dim>
					<dim>1</dim>
				</port>
			</output>
		</layer>
		<layer id="233" name="/backbone/stage3/unit3/conv1/activ/Clip/fq_output_0/output_low" type="Const" version="opset1">
			<data element_type="f32" shape="1, 192, 1, 1" offset="43164" size="768" />
			<output>
				<port id="0" precision="FP32">
					<dim>1</dim>
					<dim>192</dim>
					<dim>1</dim>
					<dim>1</dim>
				</port>
			</output>
		</layer>
		<layer id="234" name="/backbone/stage3/unit3/conv1/activ/Clip/fq_output_0/output_high" type="Const" version="opset1">
			<data element_type="f32" shape="1, 192, 1, 1" offset="62064" size="768" />
			<output>
				<port id="0" precision="FP32">
					<dim>1</dim>
					<dim>192</dim>
					<dim>1</dim>
					<dim>1</dim>
				</port>
			</output>
		</layer>
		<layer id="235" name="/backbone/stage3/unit3/conv1/activ/Clip/fq_output_0" type="FakeQuantize" version="opset1">
			<data levels="256" auto_broadcast="numpy" />
			<input>
				<port id="0" precision="FP32">
					<dim>1</dim>
					<dim>192</dim>
					<dim>100</dim>
					<dim>124</dim>
				</port>
				<port id="1" precision="FP32">
					<dim>1</dim>
					<dim>192</dim>
					<dim>1</dim>
					<dim>1</dim>
				</port>
				<port id="2" precision="FP32">
					<dim>1</dim>
					<dim>192</dim>
					<dim>1</dim>
					<dim>1</dim>
				</port>
				<port id="3" precision="FP32">
					<dim>1</dim>
					<dim>192</dim>
					<dim>1</dim>
					<dim>1</dim>
				</port>
				<port id="4" precision="FP32">
					<dim>1</dim>
					<dim>192</dim>
					<dim>1</dim>
					<dim>1</dim>
				</port>
			</input>
			<output>
				<port id="5" precision="FP32">
					<dim>1</dim>
					<dim>192</dim>
					<dim>100</dim>
					<dim>124</dim>
				</port>
			</output>
		</layer>
		<layer id="236" name="Constant_583455" type="Const" version="opset1">
			<data element_type="i8" shape="192, 1, 1, 3, 3" offset="62832" size="1728" />
			<output>
				<port id="0" precision="I8">
					<dim>192</dim>
					<dim>1</dim>
					<dim>1</dim>
					<dim>3</dim>
					<dim>3</dim>
				</port>
			</output>
		</layer>
		<layer id="237" name="Convert_583456" type="Convert" version="opset1">
			<data destination_type="f32" />
			<input>
				<port id="0" precision="I8">
					<dim>192</dim>
					<dim>1</dim>
					<dim>1</dim>
					<dim>3</dim>
					<dim>3</dim>
				</port>
			</input>
			<output>
				<port id="1" precision="FP32">
					<dim>192</dim>
					<dim>1</dim>
					<dim>1</dim>
					<dim>3</dim>
					<dim>3</dim>
				</port>
			</output>
		</layer>
		<layer id="238" name="Constant_583457" type="Const" version="opset1">
			<data element_type="f32" shape="192, 1, 1, 1, 1" offset="64560" size="768" />
			<output>
				<port id="0" precision="FP32">
					<dim>192</dim>
					<dim>1</dim>
					<dim>1</dim>
					<dim>1</dim>
					<dim>1</dim>
				</port>
			</output>
		</layer>
		<layer id="239" name="/backbone/stage3/unit3/conv2/conv/Conv/WithoutBiases/fq_weights_1" type="Multiply" version="opset1">
			<data auto_broadcast="numpy" />
			<input>
				<port id="0" precision="FP32">
					<dim>192</dim>
					<dim>1</dim>
					<dim>1</dim>
					<dim>3</dim>
					<dim>3</dim>
				</port>
				<port id="1" precision="FP32">
					<dim>192</dim>
					<dim>1</dim>
					<dim>1</dim>
					<dim>1</dim>
					<dim>1</dim>
				</port>
			</input>
			<output>
				<port id="2" precision="FP32">
					<dim>192</dim>
					<dim>1</dim>
					<dim>1</dim>
					<dim>3</dim>
					<dim>3</dim>
				</port>
			</output>
		</layer>
		<layer id="240" name="/backbone/stage3/unit3/conv2/conv/Conv/WithoutBiases" type="GroupConvolution" version="opset1">
			<data strides="1, 1" pads_begin="1, 1" pads_end="1, 1" dilations="1, 1" auto_pad="explicit" />
			<input>
				<port id="0" precision="FP32">
					<dim>1</dim>
					<dim>192</dim>
					<dim>100</dim>
					<dim>124</dim>
				</port>
				<port id="1" precision="FP32">
					<dim>192</dim>
					<dim>1</dim>
					<dim>1</dim>
					<dim>3</dim>
					<dim>3</dim>
				</port>
			</input>
			<output>
				<port id="2" precision="FP32">
					<dim>1</dim>
					<dim>192</dim>
					<dim>100</dim>
					<dim>124</dim>
				</port>
			</output>
		</layer>
		<layer id="241" name="Reshape_716" type="Const" version="opset1">
			<data element_type="f32" shape="1, 192, 1, 1" offset="65328" size="768" />
			<output>
				<port id="0" precision="FP32">
					<dim>1</dim>
					<dim>192</dim>
					<dim>1</dim>
					<dim>1</dim>
				</port>
			</output>
		</layer>
		<layer id="242" name="/backbone/stage3/unit3/conv2/conv/Conv" type="Add" version="opset1">
			<data auto_broadcast="numpy" />
			<input>
				<port id="0" precision="FP32">
					<dim>1</dim>
					<dim>192</dim>
					<dim>100</dim>
					<dim>124</dim>
				</port>
				<port id="1" precision="FP32">
					<dim>1</dim>
					<dim>192</dim>
					<dim>1</dim>
					<dim>1</dim>
				</port>
			</input>
			<output>
				<port id="2" precision="FP32" names="/backbone/stage3/unit3/conv2/conv/Conv_output_0">
					<dim>1</dim>
					<dim>192</dim>
					<dim>100</dim>
					<dim>124</dim>
				</port>
			</output>
		</layer>
		<layer id="243" name="/backbone/stage3/unit3/conv2/activ/Clip" type="Clamp" version="opset1">
			<data min="0" max="6" />
			<input>
				<port id="0" precision="FP32">
					<dim>1</dim>
					<dim>192</dim>
					<dim>100</dim>
					<dim>124</dim>
				</port>
			</input>
			<output>
				<port id="1" precision="FP32" names="/backbone/stage3/unit3/conv2/activ/Clip_output_0">
					<dim>1</dim>
					<dim>192</dim>
					<dim>100</dim>
					<dim>124</dim>
				</port>
			</output>
		</layer>
		<layer id="244" name="/backbone/stage3/unit3/conv2/activ/Clip/fq_output_0/input_low" type="Const" version="opset1">
			<data element_type="f32" shape="" offset="24" size="4" />
			<output>
				<port id="0" precision="FP32" />
			</output>
		</layer>
		<layer id="245" name="/backbone/stage3/unit3/conv2/activ/Clip/fq_output_0/input_high" type="Const" version="opset1">
			<data element_type="f32" shape="" offset="66096" size="4" />
			<output>
				<port id="0" precision="FP32" />
			</output>
		</layer>
		<layer id="246" name="/backbone/stage3/unit3/conv2/activ/Clip/fq_output_0/output_low" type="Const" version="opset1">
			<data element_type="f32" shape="" offset="24" size="4" />
			<output>
				<port id="0" precision="FP32" />
			</output>
		</layer>
		<layer id="247" name="/backbone/stage3/unit3/conv2/activ/Clip/fq_output_0/output_high" type="Const" version="opset1">
			<data element_type="f32" shape="" offset="66096" size="4" />
			<output>
				<port id="0" precision="FP32" />
			</output>
		</layer>
		<layer id="248" name="/backbone/stage3/unit3/conv2/activ/Clip/fq_output_0" type="FakeQuantize" version="opset1">
			<data levels="256" auto_broadcast="numpy" />
			<input>
				<port id="0" precision="FP32">
					<dim>1</dim>
					<dim>192</dim>
					<dim>100</dim>
					<dim>124</dim>
				</port>
				<port id="1" precision="FP32" />
				<port id="2" precision="FP32" />
				<port id="3" precision="FP32" />
				<port id="4" precision="FP32" />
			</input>
			<output>
				<port id="5" precision="FP32">
					<dim>1</dim>
					<dim>192</dim>
					<dim>100</dim>
					<dim>124</dim>
				</port>
			</output>
		</layer>
		<layer id="249" name="Constant_583459" type="Const" version="opset1">
			<data element_type="i8" shape="32, 192, 1, 1" offset="66100" size="6144" />
			<output>
				<port id="0" precision="I8">
					<dim>32</dim>
					<dim>192</dim>
					<dim>1</dim>
					<dim>1</dim>
				</port>
			</output>
		</layer>
		<layer id="250" name="Convert_583460" type="Convert" version="opset1">
			<data destination_type="f32" />
			<input>
				<port id="0" precision="I8">
					<dim>32</dim>
					<dim>192</dim>
					<dim>1</dim>
					<dim>1</dim>
				</port>
			</input>
			<output>
				<port id="1" precision="FP32">
					<dim>32</dim>
					<dim>192</dim>
					<dim>1</dim>
					<dim>1</dim>
				</port>
			</output>
		</layer>
		<layer id="251" name="Constant_583461" type="Const" version="opset1">
			<data element_type="f32" shape="32, 1, 1, 1" offset="72244" size="128" />
			<output>
				<port id="0" precision="FP32">
					<dim>32</dim>
					<dim>1</dim>
					<dim>1</dim>
					<dim>1</dim>
				</port>
			</output>
		</layer>
		<layer id="252" name="/backbone/stage3/unit3/conv3/conv/Conv/WithoutBiases/fq_weights_1" type="Multiply" version="opset1">
			<data auto_broadcast="numpy" />
			<input>
				<port id="0" precision="FP32">
					<dim>32</dim>
					<dim>192</dim>
					<dim>1</dim>
					<dim>1</dim>
				</port>
				<port id="1" precision="FP32">
					<dim>32</dim>
					<dim>1</dim>
					<dim>1</dim>
					<dim>1</dim>
				</port>
			</input>
			<output>
				<port id="2" precision="FP32">
					<dim>32</dim>
					<dim>192</dim>
					<dim>1</dim>
					<dim>1</dim>
				</port>
			</output>
		</layer>
		<layer id="253" name="/backbone/stage3/unit3/conv3/conv/Conv/WithoutBiases" type="Convolution" version="opset1">
			<data strides="1, 1" dilations="1, 1" pads_begin="0, 0" pads_end="0, 0" auto_pad="explicit" />
			<input>
				<port id="0" precision="FP32">
					<dim>1</dim>
					<dim>192</dim>
					<dim>100</dim>
					<dim>124</dim>
				</port>
				<port id="1" precision="FP32">
					<dim>32</dim>
					<dim>192</dim>
					<dim>1</dim>
					<dim>1</dim>
				</port>
			</input>
			<output>
				<port id="2" precision="FP32">
					<dim>1</dim>
					<dim>32</dim>
					<dim>100</dim>
					<dim>124</dim>
				</port>
			</output>
		</layer>
		<layer id="254" name="Reshape_733" type="Const" version="opset1">
			<data element_type="f32" shape="1, 32, 1, 1" offset="72372" size="128" />
			<output>
				<port id="0" precision="FP32">
					<dim>1</dim>
					<dim>32</dim>
					<dim>1</dim>
					<dim>1</dim>
				</port>
			</output>
		</layer>
		<layer id="255" name="/backbone/stage3/unit3/conv3/conv/Conv" type="Add" version="opset1">
			<data auto_broadcast="numpy" />
			<input>
				<port id="0" precision="FP32">
					<dim>1</dim>
					<dim>32</dim>
					<dim>100</dim>
					<dim>124</dim>
				</port>
				<port id="1" precision="FP32">
					<dim>1</dim>
					<dim>32</dim>
					<dim>1</dim>
					<dim>1</dim>
				</port>
			</input>
			<output>
				<port id="2" precision="FP32" names="/backbone/stage3/unit3/conv3/conv/Conv_output_0">
					<dim>1</dim>
					<dim>32</dim>
					<dim>100</dim>
					<dim>124</dim>
				</port>
			</output>
		</layer>
		<layer id="256" name="/backbone/stage3/unit3/conv3/conv/Conv/fq_output_0/input_low" type="Const" version="opset1">
			<data element_type="f32" shape="" offset="72500" size="4" />
			<output>
				<port id="0" precision="FP32" />
			</output>
		</layer>
		<layer id="257" name="/backbone/stage3/unit3/conv3/conv/Conv/fq_output_0/input_high" type="Const" version="opset1">
			<data element_type="f32" shape="" offset="72504" size="4" />
			<output>
				<port id="0" precision="FP32" />
			</output>
		</layer>
		<layer id="258" name="/backbone/stage3/unit3/conv3/conv/Conv/fq_output_0/output_low" type="Const" version="opset1">
			<data element_type="f32" shape="" offset="72500" size="4" />
			<output>
				<port id="0" precision="FP32" />
			</output>
		</layer>
		<layer id="259" name="/backbone/stage3/unit3/conv3/conv/Conv/fq_output_0/output_high" type="Const" version="opset1">
			<data element_type="f32" shape="" offset="72504" size="4" />
			<output>
				<port id="0" precision="FP32" />
			</output>
		</layer>
		<layer id="260" name="/backbone/stage3/unit3/conv3/conv/Conv/fq_output_0" type="FakeQuantize" version="opset1">
			<data levels="256" auto_broadcast="numpy" />
			<input>
				<port id="0" precision="FP32">
					<dim>1</dim>
					<dim>32</dim>
					<dim>100</dim>
					<dim>124</dim>
				</port>
				<port id="1" precision="FP32" />
				<port id="2" precision="FP32" />
				<port id="3" precision="FP32" />
				<port id="4" precision="FP32" />
			</input>
			<output>
				<port id="5" precision="FP32">
					<dim>1</dim>
					<dim>32</dim>
					<dim>100</dim>
					<dim>124</dim>
				</port>
			</output>
		</layer>
		<layer id="261" name="/backbone/stage3/unit3/Add" type="Add" version="opset1">
			<data auto_broadcast="numpy" />
			<input>
				<port id="0" precision="FP32">
					<dim>1</dim>
					<dim>32</dim>
					<dim>100</dim>
					<dim>124</dim>
				</port>
				<port id="1" precision="FP32">
					<dim>1</dim>
					<dim>32</dim>
					<dim>100</dim>
					<dim>124</dim>
				</port>
			</input>
			<output>
				<port id="2" precision="FP32" names="/backbone/stage3/unit3/Add_output_0">
					<dim>1</dim>
					<dim>32</dim>
					<dim>100</dim>
					<dim>124</dim>
				</port>
			</output>
		</layer>
		<layer id="262" name="/backbone/stage3/unit3/Add/fq_output_0/input_low" type="Const" version="opset1">
			<data element_type="f32" shape="" offset="72508" size="4" />
			<output>
				<port id="0" precision="FP32" />
			</output>
		</layer>
		<layer id="263" name="/backbone/stage3/unit3/Add/fq_output_0/input_high" type="Const" version="opset1">
			<data element_type="f32" shape="" offset="72512" size="4" />
			<output>
				<port id="0" precision="FP32" />
			</output>
		</layer>
		<layer id="264" name="/backbone/stage3/unit3/Add/fq_output_0/output_low" type="Const" version="opset1">
			<data element_type="f32" shape="" offset="72508" size="4" />
			<output>
				<port id="0" precision="FP32" />
			</output>
		</layer>
		<layer id="265" name="/backbone/stage3/unit3/Add/fq_output_0/output_high" type="Const" version="opset1">
			<data element_type="f32" shape="" offset="72512" size="4" />
			<output>
				<port id="0" precision="FP32" />
			</output>
		</layer>
		<layer id="266" name="/backbone/stage3/unit3/Add/fq_output_0" type="FakeQuantize" version="opset1">
			<data levels="256" auto_broadcast="numpy" />
			<input>
				<port id="0" precision="FP32">
					<dim>1</dim>
					<dim>32</dim>
					<dim>100</dim>
					<dim>124</dim>
				</port>
				<port id="1" precision="FP32" />
				<port id="2" precision="FP32" />
				<port id="3" precision="FP32" />
				<port id="4" precision="FP32" />
			</input>
			<output>
				<port id="5" precision="FP32">
					<dim>1</dim>
					<dim>32</dim>
					<dim>100</dim>
					<dim>124</dim>
				</port>
			</output>
		</layer>
		<layer id="267" name="Constant_583463" type="Const" version="opset1">
			<data element_type="i8" shape="64, 32, 1, 1" offset="72516" size="2048" />
			<output>
				<port id="0" precision="I8">
					<dim>64</dim>
					<dim>32</dim>
					<dim>1</dim>
					<dim>1</dim>
				</port>
			</output>
		</layer>
		<layer id="268" name="Convert_583464" type="Convert" version="opset1">
			<data destination_type="f32" />
			<input>
				<port id="0" precision="I8">
					<dim>64</dim>
					<dim>32</dim>
					<dim>1</dim>
					<dim>1</dim>
				</port>
			</input>
			<output>
				<port id="1" precision="FP32">
					<dim>64</dim>
					<dim>32</dim>
					<dim>1</dim>
					<dim>1</dim>
				</port>
			</output>
		</layer>
		<layer id="269" name="Constant_583465" type="Const" version="opset1">
			<data element_type="f32" shape="64, 1, 1, 1" offset="74564" size="256" />
			<output>
				<port id="0" precision="FP32">
					<dim>64</dim>
					<dim>1</dim>
					<dim>1</dim>
					<dim>1</dim>
				</port>
			</output>
		</layer>
		<layer id="270" name="/neck/lateral_convs.0/conv/Conv/WithoutBiases/fq_weights_1" type="Multiply" version="opset1">
			<data auto_broadcast="numpy" />
			<input>
				<port id="0" precision="FP32">
					<dim>64</dim>
					<dim>32</dim>
					<dim>1</dim>
					<dim>1</dim>
				</port>
				<port id="1" precision="FP32">
					<dim>64</dim>
					<dim>1</dim>
					<dim>1</dim>
					<dim>1</dim>
				</port>
			</input>
			<output>
				<port id="2" precision="FP32">
					<dim>64</dim>
					<dim>32</dim>
					<dim>1</dim>
					<dim>1</dim>
				</port>
			</output>
		</layer>
		<layer id="271" name="/neck/lateral_convs.0/conv/Conv/WithoutBiases" type="Convolution" version="opset1">
			<data strides="1, 1" dilations="1, 1" pads_begin="0, 0" pads_end="0, 0" auto_pad="explicit" />
			<input>
				<port id="0" precision="FP32">
					<dim>1</dim>
					<dim>32</dim>
					<dim>100</dim>
					<dim>124</dim>
				</port>
				<port id="1" precision="FP32">
					<dim>64</dim>
					<dim>32</dim>
					<dim>1</dim>
					<dim>1</dim>
				</port>
			</input>
			<output>
				<port id="2" precision="FP32">
					<dim>1</dim>
					<dim>64</dim>
					<dim>100</dim>
					<dim>124</dim>
				</port>
			</output>
		</layer>
		<layer id="272" name="Reshape_1777" type="Const" version="opset1">
			<data element_type="f32" shape="1, 64, 1, 1" offset="74820" size="256" />
			<output>
				<port id="0" precision="FP32">
					<dim>1</dim>
					<dim>64</dim>
					<dim>1</dim>
					<dim>1</dim>
				</port>
			</output>
		</layer>
		<layer id="273" name="/neck/lateral_convs.0/conv/Conv" type="Add" version="opset1">
			<data auto_broadcast="numpy" />
			<input>
				<port id="0" precision="FP32">
					<dim>1</dim>
					<dim>64</dim>
					<dim>100</dim>
					<dim>124</dim>
				</port>
				<port id="1" precision="FP32">
					<dim>1</dim>
					<dim>64</dim>
					<dim>1</dim>
					<dim>1</dim>
				</port>
			</input>
			<output>
				<port id="2" precision="FP32" names="/neck/lateral_convs.0/conv/Conv_output_0">
					<dim>1</dim>
					<dim>64</dim>
					<dim>100</dim>
					<dim>124</dim>
				</port>
			</output>
		</layer>
		<layer id="274" name="/neck/lateral_convs.0/conv/Conv/fq_output_0/input_low" type="Const" version="opset1">
			<data element_type="f32" shape="" offset="75076" size="4" />
			<output>
				<port id="0" precision="FP32" />
			</output>
		</layer>
		<layer id="275" name="/neck/lateral_convs.0/conv/Conv/fq_output_0/input_high" type="Const" version="opset1">
			<data element_type="f32" shape="" offset="75080" size="4" />
			<output>
				<port id="0" precision="FP32" />
			</output>
		</layer>
		<layer id="276" name="/neck/lateral_convs.0/conv/Conv/fq_output_0/output_low" type="Const" version="opset1">
			<data element_type="f32" shape="" offset="75076" size="4" />
			<output>
				<port id="0" precision="FP32" />
			</output>
		</layer>
		<layer id="277" name="/neck/lateral_convs.0/conv/Conv/fq_output_0/output_high" type="Const" version="opset1">
			<data element_type="f32" shape="" offset="75080" size="4" />
			<output>
				<port id="0" precision="FP32" />
			</output>
		</layer>
		<layer id="278" name="/neck/lateral_convs.0/conv/Conv/fq_output_0" type="FakeQuantize" version="opset1">
			<data levels="256" auto_broadcast="numpy" />
			<input>
				<port id="0" precision="FP32">
					<dim>1</dim>
					<dim>64</dim>
					<dim>100</dim>
					<dim>124</dim>
				</port>
				<port id="1" precision="FP32" />
				<port id="2" precision="FP32" />
				<port id="3" precision="FP32" />
				<port id="4" precision="FP32" />
			</input>
			<output>
				<port id="5" precision="FP32">
					<dim>1</dim>
					<dim>64</dim>
					<dim>100</dim>
					<dim>124</dim>
				</port>
			</output>
		</layer>
		<layer id="279" name="Constant_583467" type="Const" version="opset1">
			<data element_type="i8" shape="192, 32, 1, 1" offset="75084" size="6144" />
			<output>
				<port id="0" precision="I8">
					<dim>192</dim>
					<dim>32</dim>
					<dim>1</dim>
					<dim>1</dim>
				</port>
			</output>
		</layer>
		<layer id="280" name="Convert_583468" type="Convert" version="opset1">
			<data destination_type="f32" />
			<input>
				<port id="0" precision="I8">
					<dim>192</dim>
					<dim>32</dim>
					<dim>1</dim>
					<dim>1</dim>
				</port>
			</input>
			<output>
				<port id="1" precision="FP32">
					<dim>192</dim>
					<dim>32</dim>
					<dim>1</dim>
					<dim>1</dim>
				</port>
			</output>
		</layer>
		<layer id="281" name="Constant_583469" type="Const" version="opset1">
			<data element_type="f32" shape="192, 1, 1, 1" offset="81228" size="768" />
			<output>
				<port id="0" precision="FP32">
					<dim>192</dim>
					<dim>1</dim>
					<dim>1</dim>
					<dim>1</dim>
				</port>
			</output>
		</layer>
		<layer id="282" name="/backbone/stage4/unit1/conv1/conv/Conv/WithoutBiases/fq_weights_1" type="Multiply" version="opset1">
			<data auto_broadcast="numpy" />
			<input>
				<port id="0" precision="FP32">
					<dim>192</dim>
					<dim>32</dim>
					<dim>1</dim>
					<dim>1</dim>
				</port>
				<port id="1" precision="FP32">
					<dim>192</dim>
					<dim>1</dim>
					<dim>1</dim>
					<dim>1</dim>
				</port>
			</input>
			<output>
				<port id="2" precision="FP32">
					<dim>192</dim>
					<dim>32</dim>
					<dim>1</dim>
					<dim>1</dim>
				</port>
			</output>
		</layer>
		<layer id="283" name="/backbone/stage4/unit1/conv1/conv/Conv/WithoutBiases" type="Convolution" version="opset1">
			<data strides="1, 1" dilations="1, 1" pads_begin="0, 0" pads_end="0, 0" auto_pad="explicit" />
			<input>
				<port id="0" precision="FP32">
					<dim>1</dim>
					<dim>32</dim>
					<dim>100</dim>
					<dim>124</dim>
				</port>
				<port id="1" precision="FP32">
					<dim>192</dim>
					<dim>32</dim>
					<dim>1</dim>
					<dim>1</dim>
				</port>
			</input>
			<output>
				<port id="2" precision="FP32">
					<dim>1</dim>
					<dim>192</dim>
					<dim>100</dim>
					<dim>124</dim>
				</port>
			</output>
		</layer>
		<layer id="284" name="Reshape_747" type="Const" version="opset1">
			<data element_type="f32" shape="1, 192, 1, 1" offset="81996" size="768" />
			<output>
				<port id="0" precision="FP32">
					<dim>1</dim>
					<dim>192</dim>
					<dim>1</dim>
					<dim>1</dim>
				</port>
			</output>
		</layer>
		<layer id="285" name="/backbone/stage4/unit1/conv1/conv/Conv" type="Add" version="opset1">
			<data auto_broadcast="numpy" />
			<input>
				<port id="0" precision="FP32">
					<dim>1</dim>
					<dim>192</dim>
					<dim>100</dim>
					<dim>124</dim>
				</port>
				<port id="1" precision="FP32">
					<dim>1</dim>
					<dim>192</dim>
					<dim>1</dim>
					<dim>1</dim>
				</port>
			</input>
			<output>
				<port id="2" precision="FP32" names="/backbone/stage4/unit1/conv1/conv/Conv_output_0">
					<dim>1</dim>
					<dim>192</dim>
					<dim>100</dim>
					<dim>124</dim>
				</port>
			</output>
		</layer>
		<layer id="286" name="/backbone/stage4/unit1/conv1/activ/Clip" type="Clamp" version="opset1">
			<data min="0" max="6" />
			<input>
				<port id="0" precision="FP32">
					<dim>1</dim>
					<dim>192</dim>
					<dim>100</dim>
					<dim>124</dim>
				</port>
			</input>
			<output>
				<port id="1" precision="FP32" names="/backbone/stage4/unit1/conv1/activ/Clip_output_0">
					<dim>1</dim>
					<dim>192</dim>
					<dim>100</dim>
					<dim>124</dim>
				</port>
			</output>
		</layer>
		<layer id="287" name="/backbone/stage4/unit1/conv1/activ/Clip/fq_output_0/input_low" type="Const" version="opset1">
			<data element_type="f32" shape="1, 192, 1, 1" offset="43164" size="768" />
			<output>
				<port id="0" precision="FP32">
					<dim>1</dim>
					<dim>192</dim>
					<dim>1</dim>
					<dim>1</dim>
				</port>
			</output>
		</layer>
		<layer id="288" name="/backbone/stage4/unit1/conv1/activ/Clip/fq_output_0/input_high" type="Const" version="opset1">
			<data element_type="f32" shape="1, 192, 1, 1" offset="82764" size="768" />
			<output>
				<port id="0" precision="FP32">
					<dim>1</dim>
					<dim>192</dim>
					<dim>1</dim>
					<dim>1</dim>
				</port>
			</output>
		</layer>
		<layer id="289" name="/backbone/stage4/unit1/conv1/activ/Clip/fq_output_0/output_low" type="Const" version="opset1">
			<data element_type="f32" shape="1, 192, 1, 1" offset="43164" size="768" />
			<output>
				<port id="0" precision="FP32">
					<dim>1</dim>
					<dim>192</dim>
					<dim>1</dim>
					<dim>1</dim>
				</port>
			</output>
		</layer>
		<layer id="290" name="/backbone/stage4/unit1/conv1/activ/Clip/fq_output_0/output_high" type="Const" version="opset1">
			<data element_type="f32" shape="1, 192, 1, 1" offset="82764" size="768" />
			<output>
				<port id="0" precision="FP32">
					<dim>1</dim>
					<dim>192</dim>
					<dim>1</dim>
					<dim>1</dim>
				</port>
			</output>
		</layer>
		<layer id="291" name="/backbone/stage4/unit1/conv1/activ/Clip/fq_output_0" type="FakeQuantize" version="opset1">
			<data levels="256" auto_broadcast="numpy" />
			<input>
				<port id="0" precision="FP32">
					<dim>1</dim>
					<dim>192</dim>
					<dim>100</dim>
					<dim>124</dim>
				</port>
				<port id="1" precision="FP32">
					<dim>1</dim>
					<dim>192</dim>
					<dim>1</dim>
					<dim>1</dim>
				</port>
				<port id="2" precision="FP32">
					<dim>1</dim>
					<dim>192</dim>
					<dim>1</dim>
					<dim>1</dim>
				</port>
				<port id="3" precision="FP32">
					<dim>1</dim>
					<dim>192</dim>
					<dim>1</dim>
					<dim>1</dim>
				</port>
				<port id="4" precision="FP32">
					<dim>1</dim>
					<dim>192</dim>
					<dim>1</dim>
					<dim>1</dim>
				</port>
			</input>
			<output>
				<port id="5" precision="FP32">
					<dim>1</dim>
					<dim>192</dim>
					<dim>100</dim>
					<dim>124</dim>
				</port>
			</output>
		</layer>
		<layer id="292" name="Constant_583471" type="Const" version="opset1">
			<data element_type="i8" shape="192, 1, 1, 3, 3" offset="83532" size="1728" />
			<output>
				<port id="0" precision="I8">
					<dim>192</dim>
					<dim>1</dim>
					<dim>1</dim>
					<dim>3</dim>
					<dim>3</dim>
				</port>
			</output>
		</layer>
		<layer id="293" name="Convert_583472" type="Convert" version="opset1">
			<data destination_type="f32" />
			<input>
				<port id="0" precision="I8">
					<dim>192</dim>
					<dim>1</dim>
					<dim>1</dim>
					<dim>3</dim>
					<dim>3</dim>
				</port>
			</input>
			<output>
				<port id="1" precision="FP32">
					<dim>192</dim>
					<dim>1</dim>
					<dim>1</dim>
					<dim>3</dim>
					<dim>3</dim>
				</port>
			</output>
		</layer>
		<layer id="294" name="Constant_583473" type="Const" version="opset1">
			<data element_type="f32" shape="192, 1, 1, 1, 1" offset="85260" size="768" />
			<output>
				<port id="0" precision="FP32">
					<dim>192</dim>
					<dim>1</dim>
					<dim>1</dim>
					<dim>1</dim>
					<dim>1</dim>
				</port>
			</output>
		</layer>
		<layer id="295" name="/backbone/stage4/unit1/conv2/conv/Conv/WithoutBiases/fq_weights_1" type="Multiply" version="opset1">
			<data auto_broadcast="numpy" />
			<input>
				<port id="0" precision="FP32">
					<dim>192</dim>
					<dim>1</dim>
					<dim>1</dim>
					<dim>3</dim>
					<dim>3</dim>
				</port>
				<port id="1" precision="FP32">
					<dim>192</dim>
					<dim>1</dim>
					<dim>1</dim>
					<dim>1</dim>
					<dim>1</dim>
				</port>
			</input>
			<output>
				<port id="2" precision="FP32">
					<dim>192</dim>
					<dim>1</dim>
					<dim>1</dim>
					<dim>3</dim>
					<dim>3</dim>
				</port>
			</output>
		</layer>
		<layer id="296" name="/backbone/stage4/unit1/conv2/conv/Conv/WithoutBiases" type="GroupConvolution" version="opset1">
			<data strides="2, 2" pads_begin="1, 1" pads_end="1, 1" dilations="1, 1" auto_pad="explicit" />
			<input>
				<port id="0" precision="FP32">
					<dim>1</dim>
					<dim>192</dim>
					<dim>100</dim>
					<dim>124</dim>
				</port>
				<port id="1" precision="FP32">
					<dim>192</dim>
					<dim>1</dim>
					<dim>1</dim>
					<dim>3</dim>
					<dim>3</dim>
				</port>
			</input>
			<output>
				<port id="2" precision="FP32">
					<dim>1</dim>
					<dim>192</dim>
					<dim>50</dim>
					<dim>62</dim>
				</port>
			</output>
		</layer>
		<layer id="297" name="Reshape_810" type="Const" version="opset1">
			<data element_type="f32" shape="1, 192, 1, 1" offset="86028" size="768" />
			<output>
				<port id="0" precision="FP32">
					<dim>1</dim>
					<dim>192</dim>
					<dim>1</dim>
					<dim>1</dim>
				</port>
			</output>
		</layer>
		<layer id="298" name="/backbone/stage4/unit1/conv2/conv/Conv" type="Add" version="opset1">
			<data auto_broadcast="numpy" />
			<input>
				<port id="0" precision="FP32">
					<dim>1</dim>
					<dim>192</dim>
					<dim>50</dim>
					<dim>62</dim>
				</port>
				<port id="1" precision="FP32">
					<dim>1</dim>
					<dim>192</dim>
					<dim>1</dim>
					<dim>1</dim>
				</port>
			</input>
			<output>
				<port id="2" precision="FP32" names="/backbone/stage4/unit1/conv2/conv/Conv_output_0">
					<dim>1</dim>
					<dim>192</dim>
					<dim>50</dim>
					<dim>62</dim>
				</port>
			</output>
		</layer>
		<layer id="299" name="/backbone/stage4/unit1/conv2/activ/Clip" type="Clamp" version="opset1">
			<data min="0" max="6" />
			<input>
				<port id="0" precision="FP32">
					<dim>1</dim>
					<dim>192</dim>
					<dim>50</dim>
					<dim>62</dim>
				</port>
			</input>
			<output>
				<port id="1" precision="FP32" names="/backbone/stage4/unit1/conv2/activ/Clip_output_0">
					<dim>1</dim>
					<dim>192</dim>
					<dim>50</dim>
					<dim>62</dim>
				</port>
			</output>
		</layer>
		<layer id="300" name="/backbone/stage4/unit1/conv2/activ/Clip/fq_output_0/input_low" type="Const" version="opset1">
			<data element_type="f32" shape="" offset="24" size="4" />
			<output>
				<port id="0" precision="FP32" />
			</output>
		</layer>
		<layer id="301" name="/backbone/stage4/unit1/conv2/activ/Clip/fq_output_0/input_high" type="Const" version="opset1">
			<data element_type="f32" shape="" offset="86796" size="4" />
			<output>
				<port id="0" precision="FP32" />
			</output>
		</layer>
		<layer id="302" name="/backbone/stage4/unit1/conv2/activ/Clip/fq_output_0/output_low" type="Const" version="opset1">
			<data element_type="f32" shape="" offset="24" size="4" />
			<output>
				<port id="0" precision="FP32" />
			</output>
		</layer>
		<layer id="303" name="/backbone/stage4/unit1/conv2/activ/Clip/fq_output_0/output_high" type="Const" version="opset1">
			<data element_type="f32" shape="" offset="86796" size="4" />
			<output>
				<port id="0" precision="FP32" />
			</output>
		</layer>
		<layer id="304" name="/backbone/stage4/unit1/conv2/activ/Clip/fq_output_0" type="FakeQuantize" version="opset1">
			<data levels="256" auto_broadcast="numpy" />
			<input>
				<port id="0" precision="FP32">
					<dim>1</dim>
					<dim>192</dim>
					<dim>50</dim>
					<dim>62</dim>
				</port>
				<port id="1" precision="FP32" />
				<port id="2" precision="FP32" />
				<port id="3" precision="FP32" />
				<port id="4" precision="FP32" />
			</input>
			<output>
				<port id="5" precision="FP32">
					<dim>1</dim>
					<dim>192</dim>
					<dim>50</dim>
					<dim>62</dim>
				</port>
			</output>
		</layer>
		<layer id="305" name="Constant_583475" type="Const" version="opset1">
			<data element_type="i8" shape="64, 192, 1, 1" offset="86800" size="12288" />
			<output>
				<port id="0" precision="I8">
					<dim>64</dim>
					<dim>192</dim>
					<dim>1</dim>
					<dim>1</dim>
				</port>
			</output>
		</layer>
		<layer id="306" name="Convert_583476" type="Convert" version="opset1">
			<data destination_type="f32" />
			<input>
				<port id="0" precision="I8">
					<dim>64</dim>
					<dim>192</dim>
					<dim>1</dim>
					<dim>1</dim>
				</port>
			</input>
			<output>
				<port id="1" precision="FP32">
					<dim>64</dim>
					<dim>192</dim>
					<dim>1</dim>
					<dim>1</dim>
				</port>
			</output>
		</layer>
		<layer id="307" name="Constant_583477" type="Const" version="opset1">
			<data element_type="f32" shape="64, 1, 1, 1" offset="99088" size="256" />
			<output>
				<port id="0" precision="FP32">
					<dim>64</dim>
					<dim>1</dim>
					<dim>1</dim>
					<dim>1</dim>
				</port>
			</output>
		</layer>
		<layer id="308" name="/backbone/stage4/unit1/conv3/conv/Conv/WithoutBiases/fq_weights_1" type="Multiply" version="opset1">
			<data auto_broadcast="numpy" />
			<input>
				<port id="0" precision="FP32">
					<dim>64</dim>
					<dim>192</dim>
					<dim>1</dim>
					<dim>1</dim>
				</port>
				<port id="1" precision="FP32">
					<dim>64</dim>
					<dim>1</dim>
					<dim>1</dim>
					<dim>1</dim>
				</port>
			</input>
			<output>
				<port id="2" precision="FP32">
					<dim>64</dim>
					<dim>192</dim>
					<dim>1</dim>
					<dim>1</dim>
				</port>
			</output>
		</layer>
		<layer id="309" name="/backbone/stage4/unit1/conv3/conv/Conv/WithoutBiases" type="Convolution" version="opset1">
			<data strides="1, 1" dilations="1, 1" pads_begin="0, 0" pads_end="0, 0" auto_pad="explicit" />
			<input>
				<port id="0" precision="FP32">
					<dim>1</dim>
					<dim>192</dim>
					<dim>50</dim>
					<dim>62</dim>
				</port>
				<port id="1" precision="FP32">
					<dim>64</dim>
					<dim>192</dim>
					<dim>1</dim>
					<dim>1</dim>
				</port>
			</input>
			<output>
				<port id="2" precision="FP32">
					<dim>1</dim>
					<dim>64</dim>
					<dim>50</dim>
					<dim>62</dim>
				</port>
			</output>
		</layer>
		<layer id="310" name="Reshape_827" type="Const" version="opset1">
			<data element_type="f32" shape="1, 64, 1, 1" offset="99344" size="256" />
			<output>
				<port id="0" precision="FP32">
					<dim>1</dim>
					<dim>64</dim>
					<dim>1</dim>
					<dim>1</dim>
				</port>
			</output>
		</layer>
		<layer id="311" name="/backbone/stage4/unit1/conv3/conv/Conv" type="Add" version="opset1">
			<data auto_broadcast="numpy" />
			<input>
				<port id="0" precision="FP32">
					<dim>1</dim>
					<dim>64</dim>
					<dim>50</dim>
					<dim>62</dim>
				</port>
				<port id="1" precision="FP32">
					<dim>1</dim>
					<dim>64</dim>
					<dim>1</dim>
					<dim>1</dim>
				</port>
			</input>
			<output>
				<port id="2" precision="FP32" names="/backbone/stage4/unit1/conv3/conv/Conv_output_0">
					<dim>1</dim>
					<dim>64</dim>
					<dim>50</dim>
					<dim>62</dim>
				</port>
			</output>
		</layer>
		<layer id="312" name="/backbone/stage4/unit1/conv3/conv/Conv/fq_output_0/input_low" type="Const" version="opset1">
			<data element_type="f32" shape="" offset="99600" size="4" />
			<output>
				<port id="0" precision="FP32" />
			</output>
		</layer>
		<layer id="313" name="/backbone/stage4/unit1/conv3/conv/Conv/fq_output_0/input_high" type="Const" version="opset1">
			<data element_type="f32" shape="" offset="99604" size="4" />
			<output>
				<port id="0" precision="FP32" />
			</output>
		</layer>
		<layer id="314" name="/backbone/stage4/unit1/conv3/conv/Conv/fq_output_0/output_low" type="Const" version="opset1">
			<data element_type="f32" shape="" offset="99600" size="4" />
			<output>
				<port id="0" precision="FP32" />
			</output>
		</layer>
		<layer id="315" name="/backbone/stage4/unit1/conv3/conv/Conv/fq_output_0/output_high" type="Const" version="opset1">
			<data element_type="f32" shape="" offset="99604" size="4" />
			<output>
				<port id="0" precision="FP32" />
			</output>
		</layer>
		<layer id="316" name="/backbone/stage4/unit1/conv3/conv/Conv/fq_output_0" type="FakeQuantize" version="opset1">
			<data levels="256" auto_broadcast="numpy" />
			<input>
				<port id="0" precision="FP32">
					<dim>1</dim>
					<dim>64</dim>
					<dim>50</dim>
					<dim>62</dim>
				</port>
				<port id="1" precision="FP32" />
				<port id="2" precision="FP32" />
				<port id="3" precision="FP32" />
				<port id="4" precision="FP32" />
			</input>
			<output>
				<port id="5" precision="FP32">
					<dim>1</dim>
					<dim>64</dim>
					<dim>50</dim>
					<dim>62</dim>
				</port>
			</output>
		</layer>
		<layer id="317" name="Constant_583479" type="Const" version="opset1">
			<data element_type="i8" shape="384, 64, 1, 1" offset="99608" size="24576" />
			<output>
				<port id="0" precision="I8">
					<dim>384</dim>
					<dim>64</dim>
					<dim>1</dim>
					<dim>1</dim>
				</port>
			</output>
		</layer>
		<layer id="318" name="Convert_583480" type="Convert" version="opset1">
			<data destination_type="f32" />
			<input>
				<port id="0" precision="I8">
					<dim>384</dim>
					<dim>64</dim>
					<dim>1</dim>
					<dim>1</dim>
				</port>
			</input>
			<output>
				<port id="1" precision="FP32">
					<dim>384</dim>
					<dim>64</dim>
					<dim>1</dim>
					<dim>1</dim>
				</port>
			</output>
		</layer>
		<layer id="319" name="Constant_583481" type="Const" version="opset1">
			<data element_type="f32" shape="384, 1, 1, 1" offset="124184" size="1536" />
			<output>
				<port id="0" precision="FP32">
					<dim>384</dim>
					<dim>1</dim>
					<dim>1</dim>
					<dim>1</dim>
				</port>
			</output>
		</layer>
		<layer id="320" name="/backbone/stage4/unit2/conv1/conv/Conv/WithoutBiases/fq_weights_1" type="Multiply" version="opset1">
			<data auto_broadcast="numpy" />
			<input>
				<port id="0" precision="FP32">
					<dim>384</dim>
					<dim>64</dim>
					<dim>1</dim>
					<dim>1</dim>
				</port>
				<port id="1" precision="FP32">
					<dim>384</dim>
					<dim>1</dim>
					<dim>1</dim>
					<dim>1</dim>
				</port>
			</input>
			<output>
				<port id="2" precision="FP32">
					<dim>384</dim>
					<dim>64</dim>
					<dim>1</dim>
					<dim>1</dim>
				</port>
			</output>
		</layer>
		<layer id="321" name="/backbone/stage4/unit2/conv1/conv/Conv/WithoutBiases" type="Convolution" version="opset1">
			<data strides="1, 1" dilations="1, 1" pads_begin="0, 0" pads_end="0, 0" auto_pad="explicit" />
			<input>
				<port id="0" precision="FP32">
					<dim>1</dim>
					<dim>64</dim>
					<dim>50</dim>
					<dim>62</dim>
				</port>
				<port id="1" precision="FP32">
					<dim>384</dim>
					<dim>64</dim>
					<dim>1</dim>
					<dim>1</dim>
				</port>
			</input>
			<output>
				<port id="2" precision="FP32">
					<dim>1</dim>
					<dim>384</dim>
					<dim>50</dim>
					<dim>62</dim>
				</port>
			</output>
		</layer>
		<layer id="322" name="Reshape_840" type="Const" version="opset1">
			<data element_type="f32" shape="1, 384, 1, 1" offset="125720" size="1536" />
			<output>
				<port id="0" precision="FP32">
					<dim>1</dim>
					<dim>384</dim>
					<dim>1</dim>
					<dim>1</dim>
				</port>
			</output>
		</layer>
		<layer id="323" name="/backbone/stage4/unit2/conv1/conv/Conv" type="Add" version="opset1">
			<data auto_broadcast="numpy" />
			<input>
				<port id="0" precision="FP32">
					<dim>1</dim>
					<dim>384</dim>
					<dim>50</dim>
					<dim>62</dim>
				</port>
				<port id="1" precision="FP32">
					<dim>1</dim>
					<dim>384</dim>
					<dim>1</dim>
					<dim>1</dim>
				</port>
			</input>
			<output>
				<port id="2" precision="FP32" names="/backbone/stage4/unit2/conv1/conv/Conv_output_0">
					<dim>1</dim>
					<dim>384</dim>
					<dim>50</dim>
					<dim>62</dim>
				</port>
			</output>
		</layer>
		<layer id="324" name="/backbone/stage4/unit2/conv1/activ/Clip" type="Clamp" version="opset1">
			<data min="0" max="6" />
			<input>
				<port id="0" precision="FP32">
					<dim>1</dim>
					<dim>384</dim>
					<dim>50</dim>
					<dim>62</dim>
				</port>
			</input>
			<output>
				<port id="1" precision="FP32" names="/backbone/stage4/unit2/conv1/activ/Clip_output_0">
					<dim>1</dim>
					<dim>384</dim>
					<dim>50</dim>
					<dim>62</dim>
				</port>
			</output>
		</layer>
		<layer id="325" name="/backbone/stage4/unit2/conv1/activ/Clip/fq_output_0/input_low" type="Const" version="opset1">
			<data element_type="f32" shape="1, 384, 1, 1" offset="127256" size="1536" />
			<output>
				<port id="0" precision="FP32">
					<dim>1</dim>
					<dim>384</dim>
					<dim>1</dim>
					<dim>1</dim>
				</port>
			</output>
		</layer>
		<layer id="326" name="/backbone/stage4/unit2/conv1/activ/Clip/fq_output_0/input_high" type="Const" version="opset1">
			<data element_type="f32" shape="1, 384, 1, 1" offset="128792" size="1536" />
			<output>
				<port id="0" precision="FP32">
					<dim>1</dim>
					<dim>384</dim>
					<dim>1</dim>
					<dim>1</dim>
				</port>
			</output>
		</layer>
		<layer id="327" name="/backbone/stage4/unit2/conv1/activ/Clip/fq_output_0/output_low" type="Const" version="opset1">
			<data element_type="f32" shape="1, 384, 1, 1" offset="127256" size="1536" />
			<output>
				<port id="0" precision="FP32">
					<dim>1</dim>
					<dim>384</dim>
					<dim>1</dim>
					<dim>1</dim>
				</port>
			</output>
		</layer>
		<layer id="328" name="/backbone/stage4/unit2/conv1/activ/Clip/fq_output_0/output_high" type="Const" version="opset1">
			<data element_type="f32" shape="1, 384, 1, 1" offset="128792" size="1536" />
			<output>
				<port id="0" precision="FP32">
					<dim>1</dim>
					<dim>384</dim>
					<dim>1</dim>
					<dim>1</dim>
				</port>
			</output>
		</layer>
		<layer id="329" name="/backbone/stage4/unit2/conv1/activ/Clip/fq_output_0" type="FakeQuantize" version="opset1">
			<data levels="256" auto_broadcast="numpy" />
			<input>
				<port id="0" precision="FP32">
					<dim>1</dim>
					<dim>384</dim>
					<dim>50</dim>
					<dim>62</dim>
				</port>
				<port id="1" precision="FP32">
					<dim>1</dim>
					<dim>384</dim>
					<dim>1</dim>
					<dim>1</dim>
				</port>
				<port id="2" precision="FP32">
					<dim>1</dim>
					<dim>384</dim>
					<dim>1</dim>
					<dim>1</dim>
				</port>
				<port id="3" precision="FP32">
					<dim>1</dim>
					<dim>384</dim>
					<dim>1</dim>
					<dim>1</dim>
				</port>
				<port id="4" precision="FP32">
					<dim>1</dim>
					<dim>384</dim>
					<dim>1</dim>
					<dim>1</dim>
				</port>
			</input>
			<output>
				<port id="5" precision="FP32">
					<dim>1</dim>
					<dim>384</dim>
					<dim>50</dim>
					<dim>62</dim>
				</port>
			</output>
		</layer>
		<layer id="330" name="Constant_583483" type="Const" version="opset1">
			<data element_type="i8" shape="384, 1, 1, 3, 3" offset="130328" size="3456" />
			<output>
				<port id="0" precision="I8">
					<dim>384</dim>
					<dim>1</dim>
					<dim>1</dim>
					<dim>3</dim>
					<dim>3</dim>
				</port>
			</output>
		</layer>
		<layer id="331" name="Convert_583484" type="Convert" version="opset1">
			<data destination_type="f32" />
			<input>
				<port id="0" precision="I8">
					<dim>384</dim>
					<dim>1</dim>
					<dim>1</dim>
					<dim>3</dim>
					<dim>3</dim>
				</port>
			</input>
			<output>
				<port id="1" precision="FP32">
					<dim>384</dim>
					<dim>1</dim>
					<dim>1</dim>
					<dim>3</dim>
					<dim>3</dim>
				</port>
			</output>
		</layer>
		<layer id="332" name="Constant_583485" type="Const" version="opset1">
			<data element_type="f32" shape="384, 1, 1, 1, 1" offset="133784" size="1536" />
			<output>
				<port id="0" precision="FP32">
					<dim>384</dim>
					<dim>1</dim>
					<dim>1</dim>
					<dim>1</dim>
					<dim>1</dim>
				</port>
			</output>
		</layer>
		<layer id="333" name="/backbone/stage4/unit2/conv2/conv/Conv/WithoutBiases/fq_weights_1" type="Multiply" version="opset1">
			<data auto_broadcast="numpy" />
			<input>
				<port id="0" precision="FP32">
					<dim>384</dim>
					<dim>1</dim>
					<dim>1</dim>
					<dim>3</dim>
					<dim>3</dim>
				</port>
				<port id="1" precision="FP32">
					<dim>384</dim>
					<dim>1</dim>
					<dim>1</dim>
					<dim>1</dim>
					<dim>1</dim>
				</port>
			</input>
			<output>
				<port id="2" precision="FP32">
					<dim>384</dim>
					<dim>1</dim>
					<dim>1</dim>
					<dim>3</dim>
					<dim>3</dim>
				</port>
			</output>
		</layer>
		<layer id="334" name="/backbone/stage4/unit2/conv2/conv/Conv/WithoutBiases" type="GroupConvolution" version="opset1">
			<data strides="1, 1" pads_begin="1, 1" pads_end="1, 1" dilations="1, 1" auto_pad="explicit" />
			<input>
				<port id="0" precision="FP32">
					<dim>1</dim>
					<dim>384</dim>
					<dim>50</dim>
					<dim>62</dim>
				</port>
				<port id="1" precision="FP32">
					<dim>384</dim>
					<dim>1</dim>
					<dim>1</dim>
					<dim>3</dim>
					<dim>3</dim>
				</port>
			</input>
			<output>
				<port id="2" precision="FP32">
					<dim>1</dim>
					<dim>384</dim>
					<dim>50</dim>
					<dim>62</dim>
				</port>
			</output>
		</layer>
		<layer id="335" name="Reshape_903" type="Const" version="opset1">
			<data element_type="f32" shape="1, 384, 1, 1" offset="135320" size="1536" />
			<output>
				<port id="0" precision="FP32">
					<dim>1</dim>
					<dim>384</dim>
					<dim>1</dim>
					<dim>1</dim>
				</port>
			</output>
		</layer>
		<layer id="336" name="/backbone/stage4/unit2/conv2/conv/Conv" type="Add" version="opset1">
			<data auto_broadcast="numpy" />
			<input>
				<port id="0" precision="FP32">
					<dim>1</dim>
					<dim>384</dim>
					<dim>50</dim>
					<dim>62</dim>
				</port>
				<port id="1" precision="FP32">
					<dim>1</dim>
					<dim>384</dim>
					<dim>1</dim>
					<dim>1</dim>
				</port>
			</input>
			<output>
				<port id="2" precision="FP32" names="/backbone/stage4/unit2/conv2/conv/Conv_output_0">
					<dim>1</dim>
					<dim>384</dim>
					<dim>50</dim>
					<dim>62</dim>
				</port>
			</output>
		</layer>
		<layer id="337" name="/backbone/stage4/unit2/conv2/activ/Clip" type="Clamp" version="opset1">
			<data min="0" max="6" />
			<input>
				<port id="0" precision="FP32">
					<dim>1</dim>
					<dim>384</dim>
					<dim>50</dim>
					<dim>62</dim>
				</port>
			</input>
			<output>
				<port id="1" precision="FP32" names="/backbone/stage4/unit2/conv2/activ/Clip_output_0">
					<dim>1</dim>
					<dim>384</dim>
					<dim>50</dim>
					<dim>62</dim>
				</port>
			</output>
		</layer>
		<layer id="338" name="/backbone/stage4/unit2/conv2/activ/Clip/fq_output_0/input_low" type="Const" version="opset1">
			<data element_type="f32" shape="" offset="24" size="4" />
			<output>
				<port id="0" precision="FP32" />
			</output>
		</layer>
		<layer id="339" name="/backbone/stage4/unit2/conv2/activ/Clip/fq_output_0/input_high" type="Const" version="opset1">
			<data element_type="f32" shape="" offset="136856" size="4" />
			<output>
				<port id="0" precision="FP32" />
			</output>
		</layer>
		<layer id="340" name="/backbone/stage4/unit2/conv2/activ/Clip/fq_output_0/output_low" type="Const" version="opset1">
			<data element_type="f32" shape="" offset="24" size="4" />
			<output>
				<port id="0" precision="FP32" />
			</output>
		</layer>
		<layer id="341" name="/backbone/stage4/unit2/conv2/activ/Clip/fq_output_0/output_high" type="Const" version="opset1">
			<data element_type="f32" shape="" offset="136856" size="4" />
			<output>
				<port id="0" precision="FP32" />
			</output>
		</layer>
		<layer id="342" name="/backbone/stage4/unit2/conv2/activ/Clip/fq_output_0" type="FakeQuantize" version="opset1">
			<data levels="256" auto_broadcast="numpy" />
			<input>
				<port id="0" precision="FP32">
					<dim>1</dim>
					<dim>384</dim>
					<dim>50</dim>
					<dim>62</dim>
				</port>
				<port id="1" precision="FP32" />
				<port id="2" precision="FP32" />
				<port id="3" precision="FP32" />
				<port id="4" precision="FP32" />
			</input>
			<output>
				<port id="5" precision="FP32">
					<dim>1</dim>
					<dim>384</dim>
					<dim>50</dim>
					<dim>62</dim>
				</port>
			</output>
		</layer>
		<layer id="343" name="Constant_583487" type="Const" version="opset1">
			<data element_type="i8" shape="64, 384, 1, 1" offset="136860" size="24576" />
			<output>
				<port id="0" precision="I8">
					<dim>64</dim>
					<dim>384</dim>
					<dim>1</dim>
					<dim>1</dim>
				</port>
			</output>
		</layer>
		<layer id="344" name="Convert_583488" type="Convert" version="opset1">
			<data destination_type="f32" />
			<input>
				<port id="0" precision="I8">
					<dim>64</dim>
					<dim>384</dim>
					<dim>1</dim>
					<dim>1</dim>
				</port>
			</input>
			<output>
				<port id="1" precision="FP32">
					<dim>64</dim>
					<dim>384</dim>
					<dim>1</dim>
					<dim>1</dim>
				</port>
			</output>
		</layer>
		<layer id="345" name="Constant_583489" type="Const" version="opset1">
			<data element_type="f32" shape="64, 1, 1, 1" offset="161436" size="256" />
			<output>
				<port id="0" precision="FP32">
					<dim>64</dim>
					<dim>1</dim>
					<dim>1</dim>
					<dim>1</dim>
				</port>
			</output>
		</layer>
		<layer id="346" name="/backbone/stage4/unit2/conv3/conv/Conv/WithoutBiases/fq_weights_1" type="Multiply" version="opset1">
			<data auto_broadcast="numpy" />
			<input>
				<port id="0" precision="FP32">
					<dim>64</dim>
					<dim>384</dim>
					<dim>1</dim>
					<dim>1</dim>
				</port>
				<port id="1" precision="FP32">
					<dim>64</dim>
					<dim>1</dim>
					<dim>1</dim>
					<dim>1</dim>
				</port>
			</input>
			<output>
				<port id="2" precision="FP32">
					<dim>64</dim>
					<dim>384</dim>
					<dim>1</dim>
					<dim>1</dim>
				</port>
			</output>
		</layer>
		<layer id="347" name="/backbone/stage4/unit2/conv3/conv/Conv/WithoutBiases" type="Convolution" version="opset1">
			<data strides="1, 1" dilations="1, 1" pads_begin="0, 0" pads_end="0, 0" auto_pad="explicit" />
			<input>
				<port id="0" precision="FP32">
					<dim>1</dim>
					<dim>384</dim>
					<dim>50</dim>
					<dim>62</dim>
				</port>
				<port id="1" precision="FP32">
					<dim>64</dim>
					<dim>384</dim>
					<dim>1</dim>
					<dim>1</dim>
				</port>
			</input>
			<output>
				<port id="2" precision="FP32">
					<dim>1</dim>
					<dim>64</dim>
					<dim>50</dim>
					<dim>62</dim>
				</port>
			</output>
		</layer>
		<layer id="348" name="Reshape_920" type="Const" version="opset1">
			<data element_type="f32" shape="1, 64, 1, 1" offset="161692" size="256" />
			<output>
				<port id="0" precision="FP32">
					<dim>1</dim>
					<dim>64</dim>
					<dim>1</dim>
					<dim>1</dim>
				</port>
			</output>
		</layer>
		<layer id="349" name="/backbone/stage4/unit2/conv3/conv/Conv" type="Add" version="opset1">
			<data auto_broadcast="numpy" />
			<input>
				<port id="0" precision="FP32">
					<dim>1</dim>
					<dim>64</dim>
					<dim>50</dim>
					<dim>62</dim>
				</port>
				<port id="1" precision="FP32">
					<dim>1</dim>
					<dim>64</dim>
					<dim>1</dim>
					<dim>1</dim>
				</port>
			</input>
			<output>
				<port id="2" precision="FP32" names="/backbone/stage4/unit2/conv3/conv/Conv_output_0">
					<dim>1</dim>
					<dim>64</dim>
					<dim>50</dim>
					<dim>62</dim>
				</port>
			</output>
		</layer>
		<layer id="350" name="/backbone/stage4/unit2/conv3/conv/Conv/fq_output_0/input_low" type="Const" version="opset1">
			<data element_type="f32" shape="" offset="161948" size="4" />
			<output>
				<port id="0" precision="FP32" />
			</output>
		</layer>
		<layer id="351" name="/backbone/stage4/unit2/conv3/conv/Conv/fq_output_0/input_high" type="Const" version="opset1">
			<data element_type="f32" shape="" offset="161952" size="4" />
			<output>
				<port id="0" precision="FP32" />
			</output>
		</layer>
		<layer id="352" name="/backbone/stage4/unit2/conv3/conv/Conv/fq_output_0/output_low" type="Const" version="opset1">
			<data element_type="f32" shape="" offset="161948" size="4" />
			<output>
				<port id="0" precision="FP32" />
			</output>
		</layer>
		<layer id="353" name="/backbone/stage4/unit2/conv3/conv/Conv/fq_output_0/output_high" type="Const" version="opset1">
			<data element_type="f32" shape="" offset="161952" size="4" />
			<output>
				<port id="0" precision="FP32" />
			</output>
		</layer>
		<layer id="354" name="/backbone/stage4/unit2/conv3/conv/Conv/fq_output_0" type="FakeQuantize" version="opset1">
			<data levels="256" auto_broadcast="numpy" />
			<input>
				<port id="0" precision="FP32">
					<dim>1</dim>
					<dim>64</dim>
					<dim>50</dim>
					<dim>62</dim>
				</port>
				<port id="1" precision="FP32" />
				<port id="2" precision="FP32" />
				<port id="3" precision="FP32" />
				<port id="4" precision="FP32" />
			</input>
			<output>
				<port id="5" precision="FP32">
					<dim>1</dim>
					<dim>64</dim>
					<dim>50</dim>
					<dim>62</dim>
				</port>
			</output>
		</layer>
		<layer id="355" name="/backbone/stage4/unit2/Add" type="Add" version="opset1">
			<data auto_broadcast="numpy" />
			<input>
				<port id="0" precision="FP32">
					<dim>1</dim>
					<dim>64</dim>
					<dim>50</dim>
					<dim>62</dim>
				</port>
				<port id="1" precision="FP32">
					<dim>1</dim>
					<dim>64</dim>
					<dim>50</dim>
					<dim>62</dim>
				</port>
			</input>
			<output>
				<port id="2" precision="FP32" names="/backbone/stage4/unit2/Add_output_0">
					<dim>1</dim>
					<dim>64</dim>
					<dim>50</dim>
					<dim>62</dim>
				</port>
			</output>
		</layer>
		<layer id="356" name="/backbone/stage4/unit2/Add/fq_output_0/input_low" type="Const" version="opset1">
			<data element_type="f32" shape="" offset="161956" size="4" />
			<output>
				<port id="0" precision="FP32" />
			</output>
		</layer>
		<layer id="357" name="/backbone/stage4/unit2/Add/fq_output_0/input_high" type="Const" version="opset1">
			<data element_type="f32" shape="" offset="161960" size="4" />
			<output>
				<port id="0" precision="FP32" />
			</output>
		</layer>
		<layer id="358" name="/backbone/stage4/unit2/Add/fq_output_0/output_low" type="Const" version="opset1">
			<data element_type="f32" shape="" offset="161956" size="4" />
			<output>
				<port id="0" precision="FP32" />
			</output>
		</layer>
…
		<edge from-layer="2637" from-port="2" to-layer="2638" to-port="1" />
		<edge from-layer="2638" from-port="2" to-layer="2711" to-port="2" />
		<edge from-layer="2639" from-port="0" to-layer="2640" to-port="0" />
		<edge from-layer="2640" from-port="1" to-layer="2642" to-port="0" />
		<edge from-layer="2641" from-port="0" to-layer="2642" to-port="1" />
		<edge from-layer="2642" from-port="2" to-layer="2643" to-port="1" />
		<edge from-layer="2643" from-port="2" to-layer="2645" to-port="0" />
		<edge from-layer="2644" from-port="0" to-layer="2645" to-port="1" />
		<edge from-layer="2645" from-port="2" to-layer="2647" to-port="0" />
		<edge from-layer="2646" from-port="0" to-layer="2647" to-port="1" />
		<edge from-layer="2647" from-port="2" to-layer="2649" to-port="0" />
		<edge from-layer="2648" from-port="0" to-layer="2649" to-port="1" />
		<edge from-layer="2649" from-port="2" to-layer="2650" to-port="0" />
		<edge from-layer="2649" from-port="2" to-layer="2659" to-port="0" />
		<edge from-layer="2650" from-port="1" to-layer="2654" to-port="0" />
		<edge from-layer="2650" from-port="1" to-layer="2672" to-port="0" />
		<edge from-layer="2650" from-port="1" to-layer="2662" to-port="0" />
		<edge from-layer="2651" from-port="0" to-layer="2654" to-port="1" />
		<edge from-layer="2652" from-port="0" to-layer="2654" to-port="2" />
		<edge from-layer="2653" from-port="0" to-layer="2654" to-port="3" />
		<edge from-layer="2654" from-port="4" to-layer="2656" to-port="0" />
		<edge from-layer="2655" from-port="0" to-layer="2656" to-port="1" />
		<edge from-layer="2656" from-port="2" to-layer="2658" to-port="0" />
		<edge from-layer="2657" from-port="0" to-layer="2658" to-port="1" />
		<edge from-layer="2658" from-port="2" to-layer="2659" to-port="1" />
		<edge from-layer="2659" from-port="2" to-layer="2666" to-port="0" />
		<edge from-layer="2660" from-port="0" to-layer="2662" to-port="1" />
		<edge from-layer="2661" from-port="0" to-layer="2662" to-port="2" />
		<edge from-layer="2662" from-port="3" to-layer="2663" to-port="1" />
		<edge from-layer="2663" from-port="2" to-layer="2664" to-port="1" />
		<edge from-layer="2664" from-port="2" to-layer="2666" to-port="1" />
		<edge from-layer="2664" from-port="2" to-layer="2669" to-port="0" />
		<edge from-layer="2665" from-port="0" to-layer="2666" to-port="2" />
		<edge from-layer="2666" from-port="3" to-layer="2668" to-port="0" />
		<edge from-layer="2667" from-port="0" to-layer="2668" to-port="1" />
		<edge from-layer="2668" from-port="2" to-layer="2674" to-port="0" />
		<edge from-layer="2669" from-port="1" to-layer="2673" to-port="0" />
		<edge from-layer="2670" from-port="0" to-layer="2672" to-port="1" />
		<edge from-layer="2671" from-port="0" to-layer="2672" to-port="2" />
		<edge from-layer="2672" from-port="3" to-layer="2673" to-port="1" />
		<edge from-layer="2673" from-port="2" to-layer="2674" to-port="1" />
		<edge from-layer="2674" from-port="2" to-layer="2711" to-port="3" />
		<edge from-layer="2675" from-port="0" to-layer="2676" to-port="0" />
		<edge from-layer="2676" from-port="1" to-layer="2678" to-port="0" />
		<edge from-layer="2677" from-port="0" to-layer="2678" to-port="1" />
		<edge from-layer="2678" from-port="2" to-layer="2679" to-port="1" />
		<edge from-layer="2679" from-port="2" to-layer="2681" to-port="0" />
		<edge from-layer="2680" from-port="0" to-layer="2681" to-port="1" />
		<edge from-layer="2681" from-port="2" to-layer="2683" to-port="0" />
		<edge from-layer="2682" from-port="0" to-layer="2683" to-port="1" />
		<edge from-layer="2683" from-port="2" to-layer="2685" to-port="0" />
		<edge from-layer="2684" from-port="0" to-layer="2685" to-port="1" />
		<edge from-layer="2685" from-port="2" to-layer="2686" to-port="0" />
		<edge from-layer="2685" from-port="2" to-layer="2695" to-port="0" />
		<edge from-layer="2686" from-port="1" to-layer="2708" to-port="0" />
		<edge from-layer="2686" from-port="1" to-layer="2698" to-port="0" />
		<edge from-layer="2686" from-port="1" to-layer="2690" to-port="0" />
		<edge from-layer="2687" from-port="0" to-layer="2690" to-port="1" />
		<edge from-layer="2688" from-port="0" to-layer="2690" to-port="2" />
		<edge from-layer="2689" from-port="0" to-layer="2690" to-port="3" />
		<edge from-layer="2690" from-port="4" to-layer="2692" to-port="0" />
		<edge from-layer="2691" from-port="0" to-layer="2692" to-port="1" />
		<edge from-layer="2692" from-port="2" to-layer="2694" to-port="0" />
		<edge from-layer="2693" from-port="0" to-layer="2694" to-port="1" />
		<edge from-layer="2694" from-port="2" to-layer="2695" to-port="1" />
		<edge from-layer="2695" from-port="2" to-layer="2702" to-port="0" />
		<edge from-layer="2696" from-port="0" to-layer="2698" to-port="1" />
		<edge from-layer="2697" from-port="0" to-layer="2698" to-port="2" />
		<edge from-layer="2698" from-port="3" to-layer="2699" to-port="1" />
		<edge from-layer="2699" from-port="2" to-layer="2700" to-port="1" />
		<edge from-layer="2700" from-port="2" to-layer="2705" to-port="0" />
		<edge from-layer="2700" from-port="2" to-layer="2702" to-port="1" />
		<edge from-layer="2701" from-port="0" to-layer="2702" to-port="2" />
		<edge from-layer="2702" from-port="3" to-layer="2704" to-port="0" />
		<edge from-layer="2703" from-port="0" to-layer="2704" to-port="1" />
		<edge from-layer="2704" from-port="2" to-layer="2710" to-port="0" />
		<edge from-layer="2705" from-port="1" to-layer="2709" to-port="0" />
		<edge from-layer="2706" from-port="0" to-layer="2708" to-port="1" />
		<edge from-layer="2707" from-port="0" to-layer="2708" to-port="2" />
		<edge from-layer="2708" from-port="3" to-layer="2709" to-port="1" />
		<edge from-layer="2709" from-port="2" to-layer="2710" to-port="1" />
		<edge from-layer="2710" from-port="2" to-layer="2711" to-port="4" />
		<edge from-layer="2711" from-port="5" to-layer="2758" to-port="0" />
		<edge from-layer="2711" from-port="5" to-layer="2713" to-port="0" />
		<edge from-layer="2712" from-port="0" to-layer="2713" to-port="1" />
		<edge from-layer="2713" from-port="2" to-layer="2715" to-port="0" />
		<edge from-layer="2714" from-port="0" to-layer="2715" to-port="1" />
		<edge from-layer="2715" from-port="2" to-layer="2720" to-port="0" />
		<edge from-layer="2715" from-port="2" to-layer="2727" to-port="0" />
		<edge from-layer="2716" from-port="0" to-layer="2720" to-port="1" />
		<edge from-layer="2717" from-port="0" to-layer="2720" to-port="2" />
		<edge from-layer="2718" from-port="0" to-layer="2720" to-port="3" />
		<edge from-layer="2719" from-port="0" to-layer="2720" to-port="4" />
		<edge from-layer="2720" from-port="5" to-layer="2721" to-port="1" />
		<edge from-layer="2721" from-port="2" to-layer="2722" to-port="1" />
		<edge from-layer="2722" from-port="2" to-layer="2746" to-port="0" />
		<edge from-layer="2722" from-port="2" to-layer="2733" to-port="0" />
		<edge from-layer="2723" from-port="0" to-layer="2727" to-port="1" />
		<edge from-layer="2724" from-port="0" to-layer="2727" to-port="2" />
		<edge from-layer="2725" from-port="0" to-layer="2727" to-port="3" />
		<edge from-layer="2726" from-port="0" to-layer="2727" to-port="4" />
		<edge from-layer="2727" from-port="5" to-layer="2728" to-port="0" />
		<edge from-layer="2728" from-port="1" to-layer="2729" to-port="0" />
		<edge from-layer="2729" from-port="1" to-layer="2730" to-port="1" />
		<edge from-layer="2730" from-port="2" to-layer="2732" to-port="0" />
		<edge from-layer="2731" from-port="0" to-layer="2732" to-port="1" />
		<edge from-layer="2732" from-port="2" to-layer="2733" to-port="1" />
		<edge from-layer="2732" from-port="2" to-layer="2746" to-port="1" />
		<edge from-layer="2733" from-port="2" to-layer="2736" to-port="0" />
		<edge from-layer="2733" from-port="2" to-layer="2742" to-port="0" />
		<edge from-layer="2734" from-port="0" to-layer="3088" to-port="1" />
		<edge from-layer="2734" from-port="0" to-layer="2736" to-port="1" />
		<edge from-layer="2734" from-port="0" to-layer="2748" to-port="1" />
		<edge from-layer="2735" from-port="0" to-layer="2736" to-port="2" />
		<edge from-layer="2736" from-port="3" to-layer="2737" to-port="0" />
		<edge from-layer="2737" from-port="1" to-layer="2739" to-port="0" />
		<edge from-layer="2738" from-port="0" to-layer="2739" to-port="1" />
		<edge from-layer="2739" from-port="2" to-layer="2757" to-port="0" />
		<edge from-layer="2740" from-port="0" to-layer="2753" to-port="1" />
		<edge from-layer="2740" from-port="0" to-layer="3093" to-port="1" />
		<edge from-layer="2740" from-port="0" to-layer="2742" to-port="1" />
		<edge from-layer="2741" from-port="0" to-layer="2742" to-port="2" />
		<edge from-layer="2742" from-port="3" to-layer="2743" to-port="0" />
		<edge from-layer="2743" from-port="1" to-layer="2745" to-port="0" />
		<edge from-layer="2744" from-port="0" to-layer="2745" to-port="1" />
		<edge from-layer="2745" from-port="2" to-layer="2757" to-port="1" />
		<edge from-layer="2746" from-port="2" to-layer="2753" to-port="0" />
		<edge from-layer="2746" from-port="2" to-layer="2748" to-port="0" />
		<edge from-layer="2747" from-port="0" to-layer="2748" to-port="2" />
		<edge from-layer="2748" from-port="3" to-layer="2749" to-port="0" />
		<edge from-layer="2749" from-port="1" to-layer="2751" to-port="0" />
		<edge from-layer="2750" from-port="0" to-layer="2751" to-port="1" />
		<edge from-layer="2751" from-port="2" to-layer="2757" to-port="2" />
		<edge from-layer="2752" from-port="0" to-layer="2753" to-port="2" />
		<edge from-layer="2753" from-port="3" to-layer="2754" to-port="0" />
		<edge from-layer="2754" from-port="1" to-layer="2756" to-port="0" />
		<edge from-layer="2755" from-port="0" to-layer="2756" to-port="1" />
		<edge from-layer="2756" from-port="2" to-layer="2757" to-port="3" />
		<edge from-layer="2757" from-port="4" to-layer="2759" to-port="0" />
		<edge from-layer="2758" from-port="1" to-layer="3057" to-port="0" />
		<edge from-layer="2758" from-port="1" to-layer="3047" to-port="0" />
		<edge from-layer="2758" from-port="1" to-layer="2759" to-port="1" />
		<edge from-layer="2758" from-port="1" to-layer="2763" to-port="0" />
		<edge from-layer="2759" from-port="2" to-layer="2768" to-port="0" />
		<edge from-layer="2760" from-port="0" to-layer="2763" to-port="1" />
		<edge from-layer="2761" from-port="0" to-layer="2763" to-port="2" />
		<edge from-layer="2762" from-port="0" to-layer="2763" to-port="3" />
		<edge from-layer="2763" from-port="4" to-layer="2765" to-port="0" />
		<edge from-layer="2764" from-port="0" to-layer="2765" to-port="1" />
		<edge from-layer="2765" from-port="2" to-layer="2767" to-port="0" />
		<edge from-layer="2766" from-port="0" to-layer="2767" to-port="1" />
		<edge from-layer="2767" from-port="2" to-layer="2768" to-port="1" />
		<edge from-layer="2768" from-port="2" to-layer="3051" to-port="0" />
		<edge from-layer="2769" from-port="1" to-layer="2773" to-port="0" />
		<edge from-layer="2769" from-port="1" to-layer="2791" to-port="0" />
		<edge from-layer="2769" from-port="1" to-layer="2781" to-port="0" />
		<edge from-layer="2770" from-port="0" to-layer="2773" to-port="1" />
		<edge from-layer="2771" from-port="0" to-layer="2773" to-port="2" />
		<edge from-layer="2772" from-port="0" to-layer="2773" to-port="3" />
		<edge from-layer="2773" from-port="4" to-layer="2775" to-port="0" />
		<edge from-layer="2774" from-port="0" to-layer="2775" to-port="1" />
		<edge from-layer="2775" from-port="2" to-layer="2777" to-port="0" />
		<edge from-layer="2776" from-port="0" to-layer="2777" to-port="1" />
		<edge from-layer="2777" from-port="2" to-layer="2778" to-port="1" />
		<edge from-layer="2778" from-port="2" to-layer="2785" to-port="0" />
		<edge from-layer="2779" from-port="0" to-layer="2781" to-port="1" />
		<edge from-layer="2780" from-port="0" to-layer="2781" to-port="2" />
		<edge from-layer="2781" from-port="3" to-layer="2782" to-port="1" />
		<edge from-layer="2782" from-port="2" to-layer="2783" to-port="1" />
		<edge from-layer="2783" from-port="2" to-layer="2785" to-port="1" />
		<edge from-layer="2783" from-port="2" to-layer="2788" to-port="0" />
		<edge from-layer="2784" from-port="0" to-layer="2785" to-port="2" />
		<edge from-layer="2785" from-port="3" to-layer="2787" to-port="0" />
		<edge from-layer="2786" from-port="0" to-layer="2787" to-port="1" />
		<edge from-layer="2787" from-port="2" to-layer="2793" to-port="0" />
		<edge from-layer="2788" from-port="1" to-layer="2792" to-port="0" />
		<edge from-layer="2789" from-port="0" to-layer="2791" to-port="1" />
		<edge from-layer="2790" from-port="0" to-layer="2791" to-port="2" />
		<edge from-layer="2791" from-port="3" to-layer="2792" to-port="1" />
		<edge from-layer="2792" from-port="2" to-layer="2793" to-port="1" />
		<edge from-layer="2793" from-port="2" to-layer="2894" to-port="0" />
		<edge from-layer="2794" from-port="1" to-layer="2798" to-port="0" />
		<edge from-layer="2794" from-port="1" to-layer="2816" to-port="0" />
		<edge from-layer="2794" from-port="1" to-layer="2806" to-port="0" />
		<edge from-layer="2795" from-port="0" to-layer="2798" to-port="1" />
		<edge from-layer="2796" from-port="0" to-layer="2798" to-port="2" />
		<edge from-layer="2797" from-port="0" to-layer="2798" to-port="3" />
		<edge from-layer="2798" from-port="4" to-layer="2800" to-port="0" />
		<edge from-layer="2799" from-port="0" to-layer="2800" to-port="1" />
		<edge from-layer="2800" from-port="2" to-layer="2802" to-port="0" />
		<edge from-layer="2801" from-port="0" to-layer="2802" to-port="1" />
		<edge from-layer="2802" from-port="2" to-layer="2803" to-port="1" />
		<edge from-layer="2803" from-port="2" to-layer="2810" to-port="0" />
		<edge from-layer="2804" from-port="0" to-layer="2806" to-port="1" />
		<edge from-layer="2805" from-port="0" to-layer="2806" to-port="2" />
		<edge from-layer="2806" from-port="3" to-layer="2807" to-port="1" />
		<edge from-layer="2807" from-port="2" to-layer="2808" to-port="1" />
		<edge from-layer="2808" from-port="2" to-layer="2810" to-port="1" />
		<edge from-layer="2808" from-port="2" to-layer="2813" to-port="0" />
		<edge from-layer="2809" from-port="0" to-layer="2810" to-port="2" />
		<edge from-layer="2810" from-port="3" to-layer="2812" to-port="0" />
		<edge from-layer="2811" from-port="0" to-layer="2812" to-port="1" />
		<edge from-layer="2812" from-port="2" to-layer="2818" to-port="0" />
		<edge from-layer="2813" from-port="1" to-layer="2817" to-port="0" />
		<edge from-layer="2814" from-port="0" to-layer="2816" to-port="1" />
		<edge from-layer="2815" from-port="0" to-layer="2816" to-port="2" />
		<edge from-layer="2816" from-port="3" to-layer="2817" to-port="1" />
		<edge from-layer="2817" from-port="2" to-layer="2818" to-port="1" />
		<edge from-layer="2818" from-port="2" to-layer="2894" to-port="1" />
		<edge from-layer="2819" from-port="1" to-layer="2823" to-port="0" />
		<edge from-layer="2819" from-port="1" to-layer="2841" to-port="0" />
		<edge from-layer="2819" from-port="1" to-layer="2831" to-port="0" />
		<edge from-layer="2820" from-port="0" to-layer="2823" to-port="1" />
		<edge from-layer="2821" from-port="0" to-layer="2823" to-port="2" />
		<edge from-layer="2822" from-port="0" to-layer="2823" to-port="3" />
		<edge from-layer="2823" from-port="4" to-layer="2825" to-port="0" />
		<edge from-layer="2824" from-port="0" to-layer="2825" to-port="1" />
		<edge from-layer="2825" from-port="2" to-layer="2827" to-port="0" />
		<edge from-layer="2826" from-port="0" to-layer="2827" to-port="1" />
		<edge from-layer="2827" from-port="2" to-layer="2828" to-port="1" />
		<edge from-layer="2828" from-port="2" to-layer="2835" to-port="0" />
		<edge from-layer="2829" from-port="0" to-layer="2831" to-port="1" />
		<edge from-layer="2830" from-port="0" to-layer="2831" to-port="2" />
		<edge from-layer="2831" from-port="3" to-layer="2832" to-port="1" />
		<edge from-layer="2832" from-port="2" to-layer="2833" to-port="1" />
		<edge from-layer="2833" from-port="2" to-layer="2835" to-port="1" />
		<edge from-layer="2833" from-port="2" to-layer="2838" to-port="0" />
		<edge from-layer="2834" from-port="0" to-layer="2835" to-port="2" />
		<edge from-layer="2835" from-port="3" to-layer="2837" to-port="0" />
		<edge from-layer="2836" from-port="0" to-layer="2837" to-port="1" />
		<edge from-layer="2837" from-port="2" to-layer="2843" to-port="0" />
		<edge from-layer="2838" from-port="1" to-layer="2842" to-port="0" />
		<edge from-layer="2839" from-port="0" to-layer="2841" to-port="1" />
		<edge from-layer="2840" from-port="0" to-layer="2841" to-port="2" />
		<edge from-layer="2841" from-port="3" to-layer="2842" to-port="1" />
		<edge from-layer="2842" from-port="2" to-layer="2843" to-port="1" />
		<edge from-layer="2843" from-port="2" to-layer="2894" to-port="2" />
		<edge from-layer="2844" from-port="1" to-layer="2866" to-port="0" />
		<edge from-layer="2844" from-port="1" to-layer="2848" to-port="0" />
		<edge from-layer="2844" from-port="1" to-layer="2856" to-port="0" />
		<edge from-layer="2845" from-port="0" to-layer="2848" to-port="1" />
		<edge from-layer="2846" from-port="0" to-layer="2848" to-port="2" />
		<edge from-layer="2847" from-port="0" to-layer="2848" to-port="3" />
		<edge from-layer="2848" from-port="4" to-layer="2850" to-port="0" />
		<edge from-layer="2849" from-port="0" to-layer="2850" to-port="1" />
		<edge from-layer="2850" from-port="2" to-layer="2852" to-port="0" />
		<edge from-layer="2851" from-port="0" to-layer="2852" to-port="1" />
		<edge from-layer="2852" from-port="2" to-layer="2853" to-port="1" />
		<edge from-layer="2853" from-port="2" to-layer="2860" to-port="0" />
		<edge from-layer="2854" from-port="0" to-layer="2856" to-port="1" />
		<edge from-layer="2855" from-port="0" to-layer="2856" to-port="2" />
		<edge from-layer="2856" from-port="3" to-layer="2857" to-port="1" />
		<edge from-layer="2857" from-port="2" to-layer="2858" to-port="1" />
		<edge from-layer="2858" from-port="2" to-layer="2860" to-port="1" />
		<edge from-layer="2858" from-port="2" to-layer="2863" to-port="0" />
		<edge from-layer="2859" from-port="0" to-layer="2860" to-port="2" />
		<edge from-layer="2860" from-port="3" to-layer="2862" to-port="0" />
		<edge from-layer="2861" from-port="0" to-layer="2862" to-port="1" />
		<edge from-layer="2862" from-port="2" to-layer="2868" to-port="0" />
		<edge from-layer="2863" from-port="1" to-layer="2867" to-port="0" />
		<edge from-layer="2864" from-port="0" to-layer="2866" to-port="1" />
		<edge from-layer="2865" from-port="0" to-layer="2866" to-port="2" />
		<edge from-layer="2866" from-port="3" to-layer="2867" to-port="1" />
		<edge from-layer="2867" from-port="2" to-layer="2868" to-port="1" />
		<edge from-layer="2868" from-port="2" to-layer="2894" to-port="3" />
		<edge from-layer="2869" from-port="1" to-layer="2881" to-port="0" />
		<edge from-layer="2869" from-port="1" to-layer="2891" to-port="0" />
		<edge from-layer="2869" from-port="1" to-layer="2873" to-port="0" />
		<edge from-layer="2870" from-port="0" to-layer="2873" to-port="1" />
		<edge from-layer="2871" from-port="0" to-layer="2873" to-port="2" />
		<edge from-layer="2872" from-port="0" to-layer="2873" to-port="3" />
		<edge from-layer="2873" from-port="4" to-layer="2875" to-port="0" />
		<edge from-layer="2874" from-port="0" to-layer="2875" to-port="1" />
		<edge from-layer="2875" from-port="2" to-layer="2877" to-port="0" />
		<edge from-layer="2876" from-port="0" to-layer="2877" to-port="1" />
		<edge from-layer="2877" from-port="2" to-layer="2878" to-port="1" />
		<edge from-layer="2878" from-port="2" to-layer="2885" to-port="0" />
		<edge from-layer="2879" from-port="0" to-layer="2881" to-port="1" />
		<edge from-layer="2880" from-port="0" to-layer="2881" to-port="2" />
		<edge from-layer="2881" from-port="3" to-layer="2882" to-port="1" />
		<edge from-layer="2882" from-port="2" to-layer="2883" to-port="1" />
		<edge from-layer="2883" from-port="2" to-layer="2888" to-port="0" />
		<edge from-layer="2883" from-port="2" to-layer="2885" to-port="1" />
		<edge from-layer="2884" from-port="0" to-layer="2885" to-port="2" />
		<edge from-layer="2885" from-port="3" to-layer="2887" to-port="0" />
		<edge from-layer="2886" from-port="0" to-layer="2887" to-port="1" />
		<edge from-layer="2887" from-port="2" to-layer="2893" to-port="0" />
		<edge from-layer="2888" from-port="1" to-layer="2892" to-port="0" />
		<edge from-layer="2889" from-port="0" to-layer="2891" to-port="1" />
		<edge from-layer="2890" from-port="0" to-layer="2891" to-port="2" />
		<edge from-layer="2891" from-port="3" to-layer="2892" to-port="1" />
		<edge from-layer="2892" from-port="2" to-layer="2893" to-port="1" />
		<edge from-layer="2893" from-port="2" to-layer="2894" to-port="4" />
		<edge from-layer="2894" from-port="5" to-layer="3021" to-port="0" />
		<edge from-layer="2895" from-port="1" to-layer="2917" to-port="0" />
		<edge from-layer="2895" from-port="1" to-layer="2907" to-port="0" />
		<edge from-layer="2895" from-port="1" to-layer="2899" to-port="0" />
		<edge from-layer="2896" from-port="0" to-layer="2899" to-port="1" />
		<edge from-layer="2897" from-port="0" to-layer="2899" to-port="2" />
		<edge from-layer="2898" from-port="0" to-layer="2899" to-port="3" />
		<edge from-layer="2899" from-port="4" to-layer="2901" to-port="0" />
		<edge from-layer="2900" from-port="0" to-layer="2901" to-port="1" />
		<edge from-layer="2901" from-port="2" to-layer="2903" to-port="0" />
		<edge from-layer="2902" from-port="0" to-layer="2903" to-port="1" />
		<edge from-layer="2903" from-port="2" to-layer="2904" to-port="1" />
		<edge from-layer="2904" from-port="2" to-layer="2911" to-port="0" />
		<edge from-layer="2905" from-port="0" to-layer="2907" to-port="1" />
		<edge from-layer="2906" from-port="0" to-layer="2907" to-port="2" />
		<edge from-layer="2907" from-port="3" to-layer="2908" to-port="1" />
		<edge from-layer="2908" from-port="2" to-layer="2909" to-port="1" />
		<edge from-layer="2909" from-port="2" to-layer="2914" to-port="0" />
		<edge from-layer="2909" from-port="2" to-layer="2911" to-port="1" />
		<edge from-layer="2910" from-port="0" to-layer="2911" to-port="2" />
		<edge from-layer="2911" from-port="3" to-layer="2913" to-port="0" />
		<edge from-layer="2912" from-port="0" to-layer="2913" to-port="1" />
		<edge from-layer="2913" from-port="2" to-layer="2919" to-port="0" />
		<edge from-layer="2914" from-port="1" to-layer="2918" to-port="0" />
		<edge from-layer="2915" from-port="0" to-layer="2917" to-port="1" />
		<edge from-layer="2916" from-port="0" to-layer="2917" to-port="2" />
		<edge from-layer="2917" from-port="3" to-layer="2918" to-port="1" />
		<edge from-layer="2918" from-port="2" to-layer="2919" to-port="1" />
		<edge from-layer="2919" from-port="2" to-layer="3020" to-port="0" />
		<edge from-layer="2920" from-port="1" to-layer="2924" to-port="0" />
		<edge from-layer="2920" from-port="1" to-layer="2932" to-port="0" />
		<edge from-layer="2920" from-port="1" to-layer="2942" to-port="0" />
		<edge from-layer="2921" from-port="0" to-layer="2924" to-port="1" />
		<edge from-layer="2922" from-port="0" to-layer="2924" to-port="2" />
		<edge from-layer="2923" from-port="0" to-layer="2924" to-port="3" />
		<edge from-layer="2924" from-port="4" to-layer="2926" to-port="0" />
		<edge from-layer="2925" from-port="0" to-layer="2926" to-port="1" />
		<edge from-layer="2926" from-port="2" to-layer="2928" to-port="0" />
		<edge from-layer="2927" from-port="0" to-layer="2928" to-port="1" />
		<edge from-layer="2928" from-port="2" to-layer="2929" to-port="1" />
		<edge from-layer="2929" from-port="2" to-layer="2936" to-port="0" />
		<edge from-layer="2930" from-port="0" to-layer="2932" to-port="1" />
		<edge from-layer="2931" from-port="0" to-layer="2932" to-port="2" />
		<edge from-layer="2932" from-port="3" to-layer="2933" to-port="1" />
		<edge from-layer="2933" from-port="2" to-layer="2934" to-port="1" />
		<edge from-layer="2934" from-port="2" to-layer="2936" to-port="1" />
		<edge from-layer="2934" from-port="2" to-layer="2939" to-port="0" />
		<edge from-layer="2935" from-port="0" to-layer="2936" to-port="2" />
		<edge from-layer="2936" from-port="3" to-layer="2938" to-port="0" />
		<edge from-layer="2937" from-port="0" to-layer="2938" to-port="1" />
		<edge from-layer="2938" from-port="2" to-layer="2944" to-port="0" />
		<edge from-layer="2939" from-port="1" to-layer="2943" to-port="0" />
		<edge from-layer="2940" from-port="0" to-layer="2942" to-port="1" />
		<edge from-layer="2941" from-port="0" to-layer="2942" to-port="2" />
		<edge from-layer="2942" from-port="3" to-layer="2943" to-port="1" />
		<edge from-layer="2943" from-port="2" to-layer="2944" to-port="1" />
		<edge from-layer="2944" from-port="2" to-layer="3020" to-port="1" />
		<edge from-layer="2945" from-port="1" to-layer="2949" to-port="0" />
		<edge from-layer="2945" from-port="1" to-layer="2957" to-port="0" />
		<edge from-layer="2945" from-port="1" to-layer="2967" to-port="0" />
		<edge from-layer="2946" from-port="0" to-layer="2949" to-port="1" />
		<edge from-layer="2947" from-port="0" to-layer="2949" to-port="2" />
		<edge from-layer="2948" from-port="0" to-layer="2949" to-port="3" />
		<edge from-layer="2949" from-port="4" to-layer="2951" to-port="0" />
		<edge from-layer="2950" from-port="0" to-layer="2951" to-port="1" />
		<edge from-layer="2951" from-port="2" to-layer="2953" to-port="0" />
		<edge from-layer="2952" from-port="0" to-layer="2953" to-port="1" />
		<edge from-layer="2953" from-port="2" to-layer="2954" to-port="1" />
		<edge from-layer="2954" from-port="2" to-layer="2961" to-port="0" />
		<edge from-layer="2955" from-port="0" to-layer="2957" to-port="1" />
		<edge from-layer="2956" from-port="0" to-layer="2957" to-port="2" />
		<edge from-layer="2957" from-port="3" to-layer="2958" to-port="1" />
		<edge from-layer="2958" from-port="2" to-layer="2959" to-port="1" />
		<edge from-layer="2959" from-port="2" to-layer="2964" to-port="0" />
		<edge from-layer="2959" from-port="2" to-layer="2961" to-port="1" />
		<edge from-layer="2960" from-port="0" to-layer="2961" to-port="2" />
		<edge from-layer="2961" from-port="3" to-layer="2963" to-port="0" />
		<edge from-layer="2962" from-port="0" to-layer="2963" to-port="1" />
		<edge from-layer="2963" from-port="2" to-layer="2969" to-port="0" />
		<edge from-layer="2964" from-port="1" to-layer="2968" to-port="0" />
		<edge from-layer="2965" from-port="0" to-layer="2967" to-port="1" />
		<edge from-layer="2966" from-port="0" to-layer="2967" to-port="2" />
		<edge from-layer="2967" from-port="3" to-layer="2968" to-port="1" />
		<edge from-layer="2968" from-port="2" to-layer="2969" to-port="1" />
		<edge from-layer="2969" from-port="2" to-layer="3020" to-port="2" />
		<edge from-layer="2970" from-port="1" to-layer="2992" to-port="0" />
		<edge from-layer="2970" from-port="1" to-layer="2974" to-port="0" />
		<edge from-layer="2970" from-port="1" to-layer="2982" to-port="0" />
		<edge from-layer="2971" from-port="0" to-layer="2974" to-port="1" />
		<edge from-layer="2972" from-port="0" to-layer="2974" to-port="2" />
		<edge from-layer="2973" from-port="0" to-layer="2974" to-port="3" />
		<edge from-layer="2974" from-port="4" to-layer="2976" to-port="0" />
		<edge from-layer="2975" from-port="0" to-layer="2976" to-port="1" />
		<edge from-layer="2976" from-port="2" to-layer="2978" to-port="0" />
		<edge from-layer="2977" from-port="0" to-layer="2978" to-port="1" />
		<edge from-layer="2978" from-port="2" to-layer="2979" to-port="1" />
		<edge from-layer="2979" from-port="2" to-layer="2986" to-port="0" />
		<edge from-layer="2980" from-port="0" to-layer="2982" to-port="1" />
		<edge from-layer="2981" from-port="0" to-layer="2982" to-port="2" />
		<edge from-layer="2982" from-port="3" to-layer="2983" to-port="1" />
		<edge from-layer="2983" from-port="2" to-layer="2984" to-port="1" />
		<edge from-layer="2984" from-port="2" to-layer="2989" to-port="0" />
		<edge from-layer="2984" from-port="2" to-layer="2986" to-port="1" />
		<edge from-layer="2985" from-port="0" to-layer="2986" to-port="2" />
		<edge from-layer="2986" from-port="3" to-layer="2988" to-port="0" />
		<edge from-layer="2987" from-port="0" to-layer="2988" to-port="1" />
		<edge from-layer="2988" from-port="2" to-layer="2994" to-port="0" />
		<edge from-layer="2989" from-port="1" to-layer="2993" to-port="0" />
		<edge from-layer="2990" from-port="0" to-layer="2992" to-port="1" />
		<edge from-layer="2991" from-port="0" to-layer="2992" to-port="2" />
		<edge from-layer="2992" from-port="3" to-layer="2993" to-port="1" />
		<edge from-layer="2993" from-port="2" to-layer="2994" to-port="1" />
		<edge from-layer="2994" from-port="2" to-layer="3020" to-port="3" />
		<edge from-layer="2995" from-port="1" to-layer="3007" to-port="0" />
		<edge from-layer="2995" from-port="1" to-layer="2999" to-port="0" />
		<edge from-layer="2995" from-port="1" to-layer="3017" to-port="0" />
		<edge from-layer="2996" from-port="0" to-layer="2999" to-port="1" />
		<edge from-layer="2997" from-port="0" to-layer="2999" to-port="2" />
		<edge from-layer="2998" from-port="0" to-layer="2999" to-port="3" />
		<edge from-layer="2999" from-port="4" to-layer="3001" to-port="0" />
		<edge from-layer="3000" from-port="0" to-layer="3001" to-port="1" />
		<edge from-layer="3001" from-port="2" to-layer="3003" to-port="0" />
		<edge from-layer="3002" from-port="0" to-layer="3003" to-port="1" />
		<edge from-layer="3003" from-port="2" to-layer="3004" to-port="1" />
		<edge from-layer="3004" from-port="2" to-layer="3011" to-port="0" />
		<edge from-layer="3005" from-port="0" to-layer="3007" to-port="1" />
		<edge from-layer="3006" from-port="0" to-layer="3007" to-port="2" />
		<edge from-layer="3007" from-port="3" to-layer="3008" to-port="1" />
		<edge from-layer="3008" from-port="2" to-layer="3009" to-port="1" />
		<edge from-layer="3009" from-port="2" to-layer="3014" to-port="0" />
		<edge from-layer="3009" from-port="2" to-layer="3011" to-port="1" />
		<edge from-layer="3010" from-port="0" to-layer="3011" to-port="2" />
		<edge from-layer="3011" from-port="3" to-layer="3013" to-port="0" />
		<edge from-layer="3012" from-port="0" to-layer="3013" to-port="1" />
		<edge from-layer="3013" from-port="2" to-layer="3019" to-port="0" />
		<edge from-layer="3014" from-port="1" to-layer="3018" to-port="0" />
		<edge from-layer="3015" from-port="0" to-layer="3017" to-port="1" />
		<edge from-layer="3016" from-port="0" to-layer="3017" to-port="2" />
		<edge from-layer="3017" from-port="3" to-layer="3018" to-port="1" />
		<edge from-layer="3018" from-port="2" to-layer="3019" to-port="1" />
		<edge from-layer="3019" from-port="2" to-layer="3020" to-port="4" />
		<edge from-layer="3020" from-port="5" to-layer="3021" to-port="1" />
		<edge from-layer="3021" from-port="2" to-layer="3023" to-port="0" />
		<edge from-layer="3021" from-port="2" to-layer="3065" to-port="0" />
		<edge from-layer="3021" from-port="2" to-layer="3064" to-port="0" />
		<edge from-layer="3022" from-port="0" to-layer="3023" to-port="1" />
		<edge from-layer="3023" from-port="2" to-layer="3025" to-port="0" />
		<edge from-layer="3023" from-port="2" to-layer="3036" to-port="0" />
		<edge from-layer="3024" from-port="0" to-layer="3029" to-port="0" />
		<edge from-layer="3025" from-port="1" to-layer="3028" to-port="0" />
		<edge from-layer="3025" from-port="1" to-layer="3061" to-port="0" />
		<edge from-layer="3025" from-port="1" to-layer="3040" to-port="0" />
		<edge from-layer="3026" from-port="0" to-layer="3028" to-port="1" />
		<edge from-layer="3027" from-port="0" to-layer="3028" to-port="2" />
		<edge from-layer="3028" from-port="3" to-layer="3031" to-port="2" />
		<edge from-layer="3028" from-port="3" to-layer="3029" to-port="1" />
		<edge from-layer="3029" from-port="2" to-layer="3031" to-port="0" />
		<edge from-layer="3030" from-port="0" to-layer="3031" to-port="1" />
		<edge from-layer="3031" from-port="3" to-layer="3033" to-port="0" />
		<edge from-layer="3032" from-port="0" to-layer="3033" to-port="1" />
		<edge from-layer="3033" from-port="2" to-layer="3035" to-port="0" />
		<edge from-layer="3034" from-port="0" to-layer="3035" to-port="1" />
		<edge from-layer="3035" from-port="2" to-layer="3036" to-port="1" />
		<edge from-layer="3036" from-port="3" to-layer="3070" to-port="0" />
		<edge from-layer="3036" from-port="3" to-layer="3049" to-port="0" />
		<edge from-layer="3037" from-port="0" to-layer="3042" to-port="0" />
		<edge from-layer="3038" from-port="0" to-layer="3040" to-port="1" />
		<edge from-layer="3039" from-port="0" to-layer="3040" to-port="2" />
		<edge from-layer="3040" from-port="3" to-layer="3042" to-port="1" />
		<edge from-layer="3040" from-port="3" to-layer="3097" to-port="0" />
		<edge from-layer="3041" from-port="0" to-layer="3042" to-port="2" />
		<edge from-layer="3042" from-port="3" to-layer="3044" to-port="0" />
		<edge from-layer="3042" from-port="3" to-layer="3090" to-port="0" />
		<edge from-layer="3043" from-port="0" to-layer="3044" to-port="1" />
		<edge from-layer="3044" from-port="2" to-layer="3196" to-port="0" />
		<edge from-layer="3044" from-port="2" to-layer="3069" to-port="0" />
		<edge from-layer="3044" from-port="2" to-layer="3216" to-port="0" />
		<edge from-layer="3044" from-port="2" to-layer="3048" to-port="0" />
		<edge from-layer="3045" from-port="0" to-layer="3047" to-port="1" />
		<edge from-layer="3046" from-port="0" to-layer="3047" to-port="2" />
		<edge from-layer="3047" from-port="3" to-layer="3048" to-port="1" />
		<edge from-layer="3048" from-port="2" to-layer="3049" to-port="1" />
		<edge from-layer="3049" from-port="2" to-layer="3054" to-port="0" />
		<edge from-layer="3049" from-port="2" to-layer="3051" to-port="1" />
		<edge from-layer="3050" from-port="0" to-layer="3051" to-port="2" />
		<edge from-layer="3051" from-port="3" to-layer="3053" to-port="0" />
		<edge from-layer="3052" from-port="0" to-layer="3053" to-port="1" />
		<edge from-layer="3053" from-port="2" to-layer="3059" to-port="0" />
		<edge from-layer="3054" from-port="1" to-layer="3058" to-port="0" />
		<edge from-layer="3054" from-port="1" to-layer="3107" to-port="0" />
		<edge from-layer="3055" from-port="0" to-layer="3057" to-port="1" />
		<edge from-layer="3056" from-port="0" to-layer="3057" to-port="2" />
		<edge from-layer="3057" from-port="3" to-layer="3058" to-port="1" />
		<edge from-layer="3058" from-port="2" to-layer="3059" to-port="1" />
		<edge from-layer="3058" from-port="2" to-layer="3116" to-port="0" />
		<edge from-layer="3059" from-port="2" to-layer="3086" to-port="0" />
		<edge from-layer="3059" from-port="2" to-layer="3110" to-port="0" />
		<edge from-layer="3060" from-port="0" to-layer="3061" to-port="1" />
		<edge from-layer="3061" from-port="2" to-layer="3063" to-port="0" />
		<edge from-layer="3062" from-port="0" to-layer="3063" to-port="1" />
		<edge from-layer="3063" from-port="2" to-layer="3064" to-port="1" />
		<edge from-layer="3064" from-port="2" to-layer="3072" to-port="0" />
		<edge from-layer="3065" from-port="1" to-layer="3078" to-port="0" />
		<edge from-layer="3065" from-port="1" to-layer="3068" to-port="0" />
		<edge from-layer="3066" from-port="0" to-layer="3068" to-port="1" />
		<edge from-layer="3067" from-port="0" to-layer="3068" to-port="2" />
		<edge from-layer="3068" from-port="3" to-layer="3069" to-port="1" />
		<edge from-layer="3069" from-port="2" to-layer="3070" to-port="1" />
		<edge from-layer="3070" from-port="2" to-layer="3075" to-port="0" />
		<edge from-layer="3070" from-port="2" to-layer="3072" to-port="1" />
		<edge from-layer="3071" from-port="0" to-layer="3072" to-port="2" />
		<edge from-layer="3072" from-port="3" to-layer="3074" to-port="0" />
		<edge from-layer="3073" from-port="0" to-layer="3074" to-port="1" />
		<edge from-layer="3074" from-port="2" to-layer="3080" to-port="0" />
		<edge from-layer="3075" from-port="1" to-layer="3079" to-port="0" />
		<edge from-layer="3076" from-port="0" to-layer="3078" to-port="1" />
		<edge from-layer="3077" from-port="0" to-layer="3078" to-port="2" />
		<edge from-layer="3078" from-port="3" to-layer="3079" to-port="1" />
		<edge from-layer="3079" from-port="2" to-layer="3080" to-port="1" />
		<edge from-layer="3080" from-port="2" to-layer="3082" to-port="0" />
		<edge from-layer="3081" from-port="0" to-layer="3082" to-port="1" />
		<edge from-layer="3082" from-port="2" to-layer="3086" to-port="1" />
		<edge from-layer="3082" from-port="2" to-layer="3125" to-port="0" />
		<edge from-layer="3082" from-port="2" to-layer="3130" to-port="0" />
		<edge from-layer="3083" from-port="0" to-layer="3086" to-port="2" />
		<edge from-layer="3084" from-port="0" to-layer="3086" to-port="3" />
		<edge from-layer="3085" from-port="0" to-layer="3086" to-port="4" />
		<edge from-layer="3086" from-port="5" to-layer="3113" to-port="0" />
		<edge from-layer="3086" from-port="5" to-layer="3093" to-port="0" />
		<edge from-layer="3086" from-port="5" to-layer="3088" to-port="0" />
		<edge from-layer="3087" from-port="0" to-layer="3088" to-port="2" />
		<edge from-layer="3088" from-port="3" to-layer="3140" to-port="0" />
		<edge from-layer="3088" from-port="3" to-layer="3117" to-port="0" />
		<edge from-layer="3088" from-port="3" to-layer="3091" to-port="0" />
		<edge from-layer="3089" from-port="0" to-layer="3090" to-port="1" />
		<edge from-layer="3090" from-port="2" to-layer="3091" to-port="1" />
		<edge from-layer="3091" from-port="2" to-layer="3102" to-port="0" />
		<edge from-layer="3091" from-port="2" to-layer="3105" to-port="0" />
		<edge from-layer="3092" from-port="0" to-layer="3093" to-port="2" />
		<edge from-layer="3093" from-port="3" to-layer="3134" to-port="0" />
		<edge from-layer="3093" from-port="3" to-layer="3095" to-port="0" />
		<edge from-layer="3094" from-port="0" to-layer="3095" to-port="1" />
		<edge from-layer="3095" from-port="2" to-layer="3100" to-port="0" />
		<edge from-layer="3096" from-port="0" to-layer="3097" to-port="1" />
		<edge from-layer="3097" from-port="2" to-layer="3153" to-port="0" />
		<edge from-layer="3097" from-port="2" to-layer="3099" to-port="0" />
		<edge from-layer="3098" from-port="0" to-layer="3099" to-port="1" />
		<edge from-layer="3099" from-port="2" to-layer="3100" to-port="1" />
		<edge from-layer="3100" from-port="2" to-layer="3102" to-port="1" />
		<edge from-layer="3101" from-port="0" to-layer="3102" to-port="2" />
		<edge from-layer="3102" from-port="3" to-layer="3164" to-port="0" />
		<edge from-layer="3103" from-port="0" to-layer="3163" to-port="0" />
		<edge from-layer="3104" from-port="0" to-layer="3105" to-port="1" />
		<edge from-layer="3105" from-port="2" to-layer="3156" to-port="0" />
		<edge from-layer="3106" from-port="0" to-layer="3107" to-port="1" />
		<edge from-layer="3107" from-port="2" to-layer="3109" to-port="0" />
		<edge from-layer="3108" from-port="0" to-layer="3109" to-port="1" />
		<edge from-layer="3109" from-port="2" to-layer="3110" to-port="1" />
		<edge from-layer="3110" from-port="2" to-layer="3120" to-port="0" />
		<edge from-layer="3111" from-port="0" to-layer="3113" to-port="1" />
		<edge from-layer="3112" from-port="0" to-layer="3113" to-port="2" />
		<edge from-layer="3113" from-port="3" to-layer="3118" to-port="0" />
		<edge from-layer="3113" from-port="3" to-layer="3135" to-port="0" />
		<edge from-layer="3114" from-port="0" to-layer="3116" to-port="1" />
		<edge from-layer="3115" from-port="0" to-layer="3116" to-port="2" />
		<edge from-layer="3116" from-port="3" to-layer="3117" to-port="1" />
		<edge from-layer="3117" from-port="2" to-layer="3118" to-port="1" />
		<edge from-layer="3118" from-port="2" to-layer="3120" to-port="1" />
		<edge from-layer="3119" from-port="0" to-layer="3120" to-port="2" />
		<edge from-layer="3120" from-port="3" to-layer="3122" to-port="0" />
		<edge from-layer="3121" from-port="0" to-layer="3122" to-port="1" />
		<edge from-layer="3122" from-port="2" to-layer="3124" to-port="0" />
		<edge from-layer="3123" from-port="0" to-layer="3124" to-port="1" />
		<edge from-layer="3124" from-port="2" to-layer="3148" to-port="0" />
		<edge from-layer="3125" from-port="1" to-layer="3127" to-port="0" />
		<edge from-layer="3125" from-port="1" to-layer="3133" to-port="0" />
		<edge from-layer="3125" from-port="1" to-layer="3138" to-port="0" />
		<edge from-layer="3126" from-port="0" to-layer="3127" to-port="1" />
		<edge from-layer="3127" from-port="2" to-layer="3129" to-port="0" />
		<edge from-layer="3128" from-port="0" to-layer="3129" to-port="1" />
		<edge from-layer="3129" from-port="2" to-layer="3130" to-port="1" />
		<edge from-layer="3130" from-port="2" to-layer="3143" to-port="0" />
		<edge from-layer="3131" from-port="0" to-layer="3133" to-port="1" />
		<edge from-layer="3132" from-port="0" to-layer="3133" to-port="2" />
		<edge from-layer="3133" from-port="3" to-layer="3139" to-port="0" />
		<edge from-layer="3133" from-port="3" to-layer="3134" to-port="1" />
		<edge from-layer="3134" from-port="2" to-layer="3135" to-port="1" />
		<edge from-layer="3135" from-port="2" to-layer="3141" to-port="0" />
		<edge from-layer="3136" from-port="0" to-layer="3138" to-port="1" />
		<edge from-layer="3137" from-port="0" to-layer="3138" to-port="2" />
		<edge from-layer="3138" from-port="3" to-layer="3139" to-port="1" />
		<edge from-layer="3139" from-port="2" to-layer="3140" to-port="1" />
		<edge from-layer="3140" from-port="2" to-layer="3141" to-port="1" />
		<edge from-layer="3141" from-port="2" to-layer="3143" to-port="1" />
		<edge from-layer="3142" from-port="0" to-layer="3143" to-port="2" />
		<edge from-layer="3143" from-port="3" to-layer="3145" to-port="0" />
		<edge from-layer="3144" from-port="0" to-layer="3145" to-port="1" />
		<edge from-layer="3145" from-port="2" to-layer="3147" to-port="0" />
		<edge from-layer="3146" from-port="0" to-layer="3147" to-port="1" />
		<edge from-layer="3147" from-port="2" to-layer="3148" to-port="1" />
		<edge from-layer="3148" from-port="2" to-layer="3150" to-port="0" />
		<edge from-layer="3149" from-port="0" to-layer="3150" to-port="1" />
		<edge from-layer="3150" from-port="2" to-layer="3154" to-port="0" />
		<edge from-layer="3151" from-port="0" to-layer="3153" to-port="1" />
		<edge from-layer="3152" from-port="0" to-layer="3153" to-port="2" />
		<edge from-layer="3153" from-port="3" to-layer="3154" to-port="1" />
		<edge from-layer="3154" from-port="2" to-layer="3156" to-port="1" />
		<edge from-layer="3155" from-port="0" to-layer="3156" to-port="2" />
		<edge from-layer="3156" from-port="3" to-layer="3157" to-port="0" />
		<edge from-layer="3156" from-port="3" to-layer="3176" to-port="0" />
		<edge from-layer="3157" from-port="1" to-layer="3160" to-port="0" />
		<edge from-layer="3158" from-port="0" to-layer="3160" to-port="1" />
		<edge from-layer="3159" from-port="0" to-layer="3160" to-port="2" />
		<edge from-layer="3160" from-port="3" to-layer="3162" to-port="0" />
		<edge from-layer="3160" from-port="3" to-layer="3174" to-port="0" />
		<edge from-layer="3161" from-port="0" to-layer="3162" to-port="1" />
		<edge from-layer="3162" from-port="2" to-layer="3163" to-port="1" />
		<edge from-layer="3163" from-port="2" to-layer="3164" to-port="1" />
		<edge from-layer="3164" from-port="2" to-layer="3170" to-port="0" />
		<edge from-layer="3164" from-port="2" to-layer="3165" to-port="0" />
		<edge from-layer="3165" from-port="1" to-layer="3167" to-port="0" />
		<edge from-layer="3165" from-port="1" to-layer="3195" to-port="0" />
		<edge from-layer="3166" from-port="0" to-layer="3167" to-port="1" />
		<edge from-layer="3167" from-port="2" to-layer="3169" to-port="0" />
		<edge from-layer="3168" from-port="0" to-layer="3169" to-port="1" />
		<edge from-layer="3169" from-port="2" to-layer="3170" to-port="1" />
		<edge from-layer="3170" from-port="2" to-layer="3199" to-port="0" />
		<edge from-layer="3171" from-port="0" to-layer="3175" to-port="0" />
		<edge from-layer="3172" from-port="0" to-layer="3174" to-port="1" />
		<edge from-layer="3173" from-port="0" to-layer="3174" to-port="2" />
		<edge from-layer="3174" from-port="3" to-layer="3175" to-port="1" />
		<edge from-layer="3175" from-port="2" to-layer="3176" to-port="1" />
		<edge from-layer="3176" from-port="2" to-layer="3212" to-port="0" />
		<edge from-layer="3176" from-port="2" to-layer="3179" to-port="0" />
		<edge from-layer="3176" from-port="2" to-layer="3181" to-port="0" />
		<edge from-layer="3177" from-port="0" to-layer="3179" to-port="1" />
		<edge from-layer="3178" from-port="0" to-layer="3179" to-port="2" />
		<edge from-layer="3179" from-port="3" to-layer="3192" to-port="0" />
		<edge from-layer="3180" from-port="0" to-layer="3185" to-port="0" />
		<edge from-layer="3181" from-port="1" to-layer="3215" to-port="0" />
		<edge from-layer="3181" from-port="1" to-layer="3207" to-port="0" />
		<edge from-layer="3181" from-port="1" to-layer="3225" to-port="0" />
		<edge from-layer="3181" from-port="1" to-layer="3184" to-port="0" />
		<edge from-layer="3182" from-port="0" to-layer="3184" to-port="1" />
		<edge from-layer="3183" from-port="0" to-layer="3184" to-port="2" />
		<edge from-layer="3184" from-port="3" to-layer="3187" to-port="2" />
		<edge from-layer="3184" from-port="3" to-layer="3185" to-port="1" />
		<edge from-layer="3185" from-port="2" to-layer="3187" to-port="0" />
		<edge from-layer="3186" from-port="0" to-layer="3187" to-port="1" />
		<edge from-layer="3187" from-port="3" to-layer="3189" to-port="0" />
		<edge from-layer="3188" from-port="0" to-layer="3189" to-port="1" />
		<edge from-layer="3189" from-port="2" to-layer="3191" to-port="0" />
		<edge from-layer="3190" from-port="0" to-layer="3191" to-port="1" />
		<edge from-layer="3191" from-port="2" to-layer="3192" to-port="1" />
		<edge from-layer="3192" from-port="3" to-layer="3197" to-port="0" />
		<edge from-layer="3192" from-port="3" to-layer="3217" to-port="0" />
		<edge from-layer="3193" from-port="0" to-layer="3195" to-port="1" />
		<edge from-layer="3194" from-port="0" to-layer="3195" to-port="2" />
		<edge from-layer="3195" from-port="3" to-layer="3196" to-port="1" />
		<edge from-layer="3196" from-port="2" to-layer="3197" to-port="1" />
		<edge from-layer="3197" from-port="2" to-layer="3199" to-port="1" />
		<edge from-layer="3197" from-port="2" to-layer="3202" to-port="0" />
		<edge from-layer="3198" from-port="0" to-layer="3199" to-port="2" />
		<edge from-layer="3199" from-port="3" to-layer="3201" to-port="0" />
		<edge from-layer="3200" from-port="0" to-layer="3201" to-port="1" />
		<edge from-layer="3201" from-port="2" to-layer="3203" to-port="0" />
		<edge from-layer="3202" from-port="1" to-layer="3203" to-port="1" />
		<edge from-layer="3203" from-port="2" to-layer="3204" to-port="0" />
		<edge from-layer="3205" from-port="0" to-layer="3207" to-port="1" />
		<edge from-layer="3206" from-port="0" to-layer="3207" to-port="2" />
		<edge from-layer="3207" from-port="3" to-layer="3209" to-port="0" />
		<edge from-layer="3208" from-port="0" to-layer="3209" to-port="1" />
		<edge from-layer="3209" from-port="2" to-layer="3211" to-port="0" />
		<edge from-layer="3210" from-port="0" to-layer="3211" to-port="1" />
		<edge from-layer="3211" from-port="2" to-layer="3212" to-port="1" />
		<edge from-layer="3212" from-port="2" to-layer="3219" to-port="0" />
		<edge from-layer="3213" from-port="0" to-layer="3215" to-port="1" />
		<edge from-layer="3214" from-port="0" to-layer="3215" to-port="2" />
		<edge from-layer="3215" from-port="3" to-layer="3216" to-port="1" />
		<edge from-layer="3216" from-port="2" to-layer="3217" to-port="1" />
		<edge from-layer="3217" from-port="2" to-layer="3219" to-port="1" />
		<edge from-layer="3217" from-port="2" to-layer="3222" to-port="0" />
		<edge from-layer="3218" from-port="0" to-layer="3219" to-port="2" />
		<edge from-layer="3219" from-port="3" to-layer="3221" to-port="0" />
		<edge from-layer="3220" from-port="0" to-layer="3221" to-port="1" />
		<edge from-layer="3221" from-port="2" to-layer="3227" to-port="0" />
		<edge from-layer="3222" from-port="1" to-layer="3226" to-port="0" />
		<edge from-layer="3223" from-port="0" to-layer="3225" to-port="1" />
		<edge from-layer="3224" from-port="0" to-layer="3225" to-port="2" />
		<edge from-layer="3225" from-port="3" to-layer="3226" to-port="1" />
		<edge from-layer="3226" from-port="2" to-layer="3227" to-port="1" />
		<edge from-layer="3227" from-port="2" to-layer="3228" to-port="0" />
	</edges>
	<rt_info>
		<Runtime_version value="2024.6.0-17404-4c0f47d2335-releases/2024/6" />
		<conversion_parameters>
			<is_python_object value="False" />
		</conversion_parameters>
		<model_info>
			<confidence_threshold value="0.35000000000000003" />
			<iou_threshold value="0.5" />
			<label_ids value="684350fa98dfecaa64fec3b0 684350fa98dfecaa64fec3b4" />
			<label_info value="{&quot;label_names&quot;: [&quot;person&quot;, &quot;No object&quot;], &quot;label_ids&quot;: [&quot;684350fa98dfecaa64fec3b0&quot;, &quot;684350fa98dfecaa64fec3b4&quot;], &quot;label_groups&quot;: [[&quot;person&quot;], [&quot;No object&quot;]]}" />
			<labels value="person No_object" />
			<mean_values value="0.0 0.0 0.0" />
			<model_type value="ssd" />
			<optimization_config value="{}" />
			<otx_version value="2.3.0rc0" />
			<pad_value value="0" />
			<resize_type value="standard" />
			<reverse_input_channels value="False" />
			<scale_values value="255.0 255.0 255.0" />
			<task_type value="detection" />
		</model_info>
		<nncf>
			<friendly_names_were_updated value="True" />
			<quantization>
				<advanced_parameters value="{}" />
				<fast_bias_correction value="True" />
				<ignored_scope value="None" />
				<model_type value="None" />
				<preset value="None" />
				<subset_size value="300" />
				<target_device value="ANY" />
			</quantization>
		</nncf>
	</rt_info>
</net>
